src/checkpoints/avg_return_-0.2.ckpt (torch, 301025 bytes, 33 tensors)

shared_body.0.weight f4 [256, 15]
0.16502449 0.2532657 0.69221026 0.002258493 0.0514716 0.01958428 -0.08042982 -0.20814596
0.5325409 -0.37102234 0.076080665 0.17474405 -0.6976283 0.340456 -0.086804494 -0.3252564
-0.28343326 0.057068862 -0.8060295 0.066558436 0.11063319 0.32490784 -0.0010387335 0.37400883
0.4895955 -0.018232604 0.1624498 -0.19166243 -0.36659896 -0.17790337 -0.08446097 -0.39758444
-0.4248851 -0.7177262 -0.13354126 0.1586011 0.25784108 0.18939742 -0.2291675 -0.22651516
-0.051680878 0.20658672 -0.21814907 0.53769046 0.24116571 0.3673488 -0.27294844 0.87282526
0.4714658 -0.07117649 0.017735537 -0.15139744 -0.21732977 0.32959786 0.1419105 -0.07226043
0.1207106 -0.0691234 -0.07930573 -0.10608499 0.08296441 -0.41469353 1.1468419 0.13367799
0.017941408 0.024037844 -0.30049127 -0.12383385 -0.101650566 0.47011435 0.1095594 0.16394316
-0.33467743 -0.03459412 0.02237965 0.18699172 -0.2475489 -0.0719274 -0.07523818 -0.22129959
-0.1769317 -0.2124374 0.25819227 -0.11882244 -0.046983525 -0.19195792 0.028976887 -0.074902415
0.0010484457 -0.2414302 0.24336635 0.055418763 -1.3890171 1.7453355 -0.032991182 -0.09430714
-0.1841712 -0.019759402 0.33332017 -0.16395728 -0.15540482 0.20676982 -0.20446706 0.16536926
0.15188435 -0.25705338 -0.70575714 -0.41804203 -1.9017662 0.008608731 0.014623875 0.17334817
0.33014372 0.18322581 0.043811988 0.027475838 0.046965603 -0.102896206 0.1898884 -0.06230905
0.12846644 0.005594647 0.10915008 -0.27404365 -0.34287235 0.08577761 -0.018757071 -0.3123274
-0.5274154 0.20913647 0.055960644 -0.43081605 0.59229326 -0.2813109 -0.17605844 -0.1584614
-0.021931797 0.22484264 0.068167925 -0.10198173 -0.1662973 -0.09407802 -0.032637194 -0.054079697
-0.1723123 0.18306807 -0.028467566 -0.23230158 -0.07697868 0.10361111 -0.21493913 -0.12906745
-0.2942894 -0.37856513 0.1525204 -0.28189355 -0.21925208 -0.052749675 0.0195593 -0.033677652
-0.2815873 0.09779971 -0.09541008 -0.20099945 0.070790164 0.06595513 0.22900623 0.14526507
-0.038894042 -0.059853822 -0.011088416 -0.054317653 0.11166236 0.11904195 -0.1669141 -0.2296312
0.13428828 0.24242893 0.057038963 -0.10346256 0.0022062126 -0.014984987 0.31215665 -0.53645945
-0.07012991 0.122927785 -0.12174793 0.10859899 -0.08560805 0.027426114 -0.09326923 -0.2643855
0.040619183 0.30660477 -0.014444277 -0.17761758 -0.072308704 0.25115108 0.33413413 -0.121606894
0.04159773 0.09257612 0.22393334 0.029501816 0.05276962 -0.03709293 0.2891971 -0.38125688
-0.09078654 0.00029664134 0.23231639 -0.23963481 0.2396187 0.31321838 -0.13232349 0.16475847
0.025830926 0.24809173 0.22883524 0.22954096 -0.05544624 0.2658368 -0.34308088 -0.41877234
-0.3271794 -0.2205133 0.04334354 -1.2282312 0.55135834 -0.09262137 -0.22870287 -0.19065225
-0.06209822 -0.17418438 0.39698663 0.21530496 0.11209372 0.140205 -0.01396278 -0.4156188
0.003838058 0.338707 0.815057 0.89694786 0.18948066 -0.14316007 0.041853424 -0.1976196
-0.09118747 -0.28770158 0.11063115 -0.030908821 -0.40467638 0.22323468 0.19942911 0.22917373
00000000: 2efc 283e 0bac 813e b134 313f 3a03 143b
00000010: e2d3 523d 366f a03c 64b8 a4bd 3724 55be
00000020: 9a54 083f a4f6 bdbe 2ed0 9b3d 1bf0 323e
00000030: c597 32bf 4050 ae3e 8ec6 b1bd 0288 a6be
00000040: 2a1e 91be 0ac1 693d f357 4ebf ca4f 883d
00000050: a793 e23d 525a a63e 1d26 88ba 167e bf3e
00000060: 43ac fa3e 8b5c 95bc 3e59 263e 2843 44be
00000070: dcb2 bbbe 4d2c 36be dff9 acbd 3090 cbbe
00000080: 8a8a d9be e7bc 37bf 0abf 08be 5468 223e
00000090: bf03 843e 66f1 413e e3aa 6abe 97f3 67be
000000a0: 54af 53bd 788b 533e 7862 5fbe 15a6 093f
000000b0: 25f4 763e 2415 bc3e e6bf 8bbe 7a71 5f3f
000000c0: f763 f13e fbc4 91bd 1e4a 913c ee07 1bbe
000000d0: b28b 5ebe 0dc1 a83e fc50 113e 47fd 93bd
000000e0: 1e37 f73d 9290 8dbd 0b6b a2bd 1643 d9bd
000000f0: 3fe9 a93d b652 d4be b7cb 923f e2e2 083e
00000100: dcf9 923c 03eb c43c fed9 99be 9a9c fdbd
00000110: 2c2e d0bd d4b2 f03e ae60 e03d b7e0 273e
00000120: d75a abbe 90b2 0dbd 8755 b73c c27a 3f3e
00000130: 757d 7dbe ac4e 93bd 7a16 9abd 5c9c 62be
00000140: 952d 35be 3189 59be c731 843e 2e59 f3bd
00000150: cc71 40bd 9e90 44be f060 ed3c 7066 99bd
00000160: 006c 893a 7a39 77be 0735 793e c9fe 623d
00000170: 50cb b1bf 2767 df3f c321 07bd 1a24 c1bd
00000180: 6097 3cbe 78de a1bc f1a8 aa3e 6be4 27be
00000190: 7122 1fbe 78bb 533e d05f 51be 8f56 293e
000001a0: 9287 1b3e 809c 83be 80ac 34bf 9b09 d6be
000001b0: 136d f3bf a30b 0d3c fa98 6f3c 2f82 313e
000001c0: 9908 a93e 8c9f 3b3e 3374 333d 0215 e13c
000001d0: 015f 403d 3fbb d2bd 1b72 423e c637 7fbd
000001e0: b58c 033e 4d53 b73b 148a df3d 734f 8cbe
000001f0: f78c afbe 2cac af3d 6ea8 99bc 61e9 9fbe
00000200: b204 07bf df27 563e fd36 653d ec93 dcbe
00000210: 88a0 173f fb07 90be aa48 34be b543 22be
00000220: 50aa b3bc 263d 663e a09b 8b3d ccdb d0bd
00000230: d749 2abe faab c0bd 94ae 05bd ac82 5dbd
00000240: a372 30be 3276 3b3e d034 e9bc 77e0 6dbe
00000250: 00a7 9dbd 1032 d43d 0119 5cbe 422a 04be
00000260: 1aad 96be 4ad3 c1be 4f2e 1c3e 5a54 90be
00000270: 9e83 60be 0b10 58bd d33a a03c 94f1 09bd
00000280: 362c 90be 374b c83d 5c66 c3bd cdd2 4dbe
00000290: 6ffa 903d 7c13 873d 9c80 6a3e 5ec0 143e
000002a0: 5c4f 1fbd 4829 75bd 30ac 35bc 307c 5ebd
000002b0: 3caf e43d 44cc f33d 88eb 2abe 7124 6bbe
000002c0: de82 093e 4a3f 783e b0a1 693d 2ee4 d3bd
000002d0: 1b96 103b 9783 75bc ffd2 9f3e 6855 09bf
000002e0: 45a0 8fbd 90c1 fb3d fb56 f9bd 2669 de3d
000002f0: 4653 afbd bbac e03c f003 bfbd 895d 87be
00000300: 4d60 263d 4dfb 9c3e b0a7 6cbc 62e1 35be
00000310: 9616 94bd e096 803e a113 ab3e 090d f9bd
00000320: 6262 2a3d 8c98 bd3d c84e 653e cbad f13c
00000330: f524 583d c2ee 17bd a411 943e 1a34 c3be
00000340: 4bee b9bd 8786 9b39 59e4 6d3e d462 75be
00000350: 9b5e 753e 295e a03e cf7f 07be 72b6 283e
00000360: 619b d33c c20b 7e3e c953 6a3e c90c 6b3e
00000370: 991b 63bd c31b 883e 4ca8 afbe 5469 d6be
00000380: 0f84 a7be 3dce 61be ff88 313d ae36 9dbf
00000390: d225 0d3f 46b0 bdbd 1631 6abe 583a 43be
000003a0: b45a 7ebd 645d 32be d541 cb3e e778 5c3e
000003b0: 6491 e53d e691 0f3e 25c4 64bc fdcb d4be
000003c0: ee87 7b3b 016b ad3e 93a7 503f 609e 653f
000003d0: 3807 423e 8e98 12be 7f6e 2b3d cb5c 4abe
000003e0: 7fc0 babd 9f4d 93be 9692 e23d 7f34 fdbc
000003f0: be31 cfbe a297 643e 2537 4c3e 85ac 6a3e

shared_body.0.bias f4 [256]
-0.30910638 -0.17759147 0.055350438 0.24524288 0.08860368 -0.13195315 0.18094598 0.10874952
0.04430239 -0.1924831 0.1852256 -0.22143878 -0.101216756 -0.12250243 0.05384948 0.13482924
-0.22438021 -0.11060697 -0.23880462 0.04234461 0.0145680895 0.0548579 0.07503937 -0.40508425
-0.2758212 -0.2001223 -0.1971426 -0.13659325 0.086961694 -0.13875644 -0.31883955 -0.13984784
0.23022823 -0.038806435 0.28752866 -0.26605532 -0.06880512 -0.2078171 -0.084417984 -0.14928664
-0.088458456 0.15906411 0.036865115 0.007996029 0.27772713 0.066234335 0.012955646 -0.25353882
0.15945995 -0.061420113 -0.19159858 0.027682511 0.09631711 0.040654346 -0.011229984 0.1674672
-0.06565905 0.06914074 -0.17904781 -0.18073952 -0.2264362 0.1382449 -0.22422905 0.012696269
-0.092385225 -0.2519653 -0.24497941 0.092283286 0.29998082 -0.0079297125 -0.14199792 0.07065548
-0.056534965 -0.3202825 -0.11806685 -0.074360974 0.2168409 0.018424695 -0.09730443 -0.061516322
0.12611553 -0.23745133 -0.17459495 -0.026068226 -0.1769704 0.097449854 -0.24965979 0.27556387
0.12931576 -0.21683626 0.077103056 -0.023500687 -0.1254049 0.16787893 0.22101931 -0.081941426
0.09255755 -0.04798379 -0.2129342 -0.023102293 0.20045075 -0.21942957 -0.05222008 0.2066767
-0.22502455 -0.20255026 -0.20340168 0.17462784 0.106336996 0.06869314 0.09074477 0.20311286
0.13634653 -0.042254414 0.026272923 0.17297374 -0.3001568 -0.181965 0.19144417 -0.054511853
0.010844995 -0.18343055 0.33689135 -0.18657017 -0.20829543 -0.08090563 0.25560862 -0.13319005
0.016063204 0.21992733 0.26443762 -0.23004039 0.060608145 -0.16374207 0.16654183 -0.16263366
0.12641725 0.16522032 0.27852502 0.17337357 0.050384417 0.055125915 0.025933336 0.0974331
0.08351348 0.11331647 0.17317131 -0.018487148 0.23303907 -0.01283646 -0.014614891 0.05505797
0.1561234 -0.26174417 -0.28171727 -0.12742487 0.07296397 0.102638826 -0.11297784 -0.029542498
-0.18255393 0.01121895 0.12165197 0.21978526 0.27671087 0.07238118 -0.3701463 -0.29389352
0.051098548 0.07993803 0.10722616 0.075359784 -0.119353235 -0.1092528 -0.25325915 -0.20042758
0.02621131 -0.10298729 -0.19880246 0.13475904 -0.2862477 0.13884364 0.07320012 -0.18950751
-0.21025641 -0.20728885 0.13146842 -0.17367272 -0.13374977 -0.07766926 0.11610783 -0.22309764
0.1293276 -0.1419634 0.12414791 0.11714088 -0.13381793 -0.16331333 -0.35747182 0.3369994
-0.13490082 -0.22151566 0.22344148 0.17617105 0.19029485 0.008128345 0.09030972 0.022570051
-0.13197006 0.16926733 -0.18628232 0.011604633 0.087804034 0.27078158 0.028677862 -0.16591382
0.1800915 0.06851568 0.21303254 -0.2018877 0.07925505 0.013857636 0.21051748 -0.18866679
-0.14698978 -0.15448052 -0.1383481 -0.1717968 0.27527744 -0.2651596 0.23919214 -0.07727534
-0.076964185 -0.17871648 0.031176882 -0.1484702 -0.22558567 -0.27485523 0.0923042 0.1705736
-0.058808375 -0.12517115 -0.28679723 -0.16029638 0.0030837401 -0.18590887 0.23152028 0.16832288
0.19085571 0.07631494 -0.20352323 0.09554528 0.08447945 -0.10551839 -0.11223293 -0.0681692
00000000: 3143 9ebe 8ada 35be 24b7 623d f320 7b3e
00000010: d975 b53d ba1e 07be e749 393e 11b8 de3d
00000020: 6c76 353d 4a1a 45be c8ab 3d3e d9c0 62be
00000030: bb4a cfbd 8ee2 fabd 4691 5c3d ad10 0a3e
00000040: edc3 65be e885 e2bd 3389 74be 8b71 2d3d
00000050: ffae 6e3c adb2 603d 3eae 993d 3467 cfbe
00000060: 7038 8dbe dcec 4cbe c0df 49be 1adf 0bbe
00000070: f918 b23d 2b16 0ebe f03e a3be 4634 0fbe
00000080: f3c0 6b3e 7ff3 1ebd f536 933e 6738 88be
00000090: b3e9 8cbd 02ce 54be 56e3 acbd 99de 18be
000000a0: b529 b5bd b4e1 223e e0ff 163d c701 033c
000000b0: 4032 8e3e dea5 873d eb43 543c d7cf 81be
000000c0: 7849 233e a893 7bbd 6b32 44be 6fc6 e23c
000000d0: e841 c53d 2c85 263d f8fd 37bc 867c 2b3e
000000e0: 4178 86bd a999 8d3d 4f58 37be c813 39be
000000f0: e4de 67be 1290 0d3e 4d9c 65be 0304 503c
00000100: 7734 bdbd 9901 81be e2db 7abe 05ff bc3d
00000110: 1697 993e a0eb 01bc e767 11be d2b3 903d
00000120: 3591 67bd 11fc a3be 08cd f1bd 914a 98bd
00000130: 8a0b 5e3e 63ef 963c 8c47 c7bd 8af8 7bbd
00000140: 6e24 013e 7126 73be 05c9 32be 088d d5bc
00000150: bb37 35be ca93 c73d d1a6 7fbe b516 8d3e
00000160: 5a6b 043e 530a 5ebe 35e8 9d3d 8384 c0bc
00000170: 246a 00be 74e8 2b3e e352 623e e8d0 a7bd
00000180: d08e bd3d a78a 44bd 6c0b 5abe 0541 bdbc
00000190: f642 4d3e 25b2 60be b9e4 55bd 0fa3 533e
000001a0: d66c 66be 5669 4fbe 8848 50be a4d1 323e
000001b0: 36c7 d93d fdae 8c3d 65d8 b93d d1fc 4f3e
000001c0: 6d9e 0b3e f712 2dbd 503a d73c 0720 313e
000001d0: 27ae 99be 0855 3abe f109 443e d247 5fbd
000001e0: 35af 313c 38d5 3bbe 067d ac3e 400c 3fbe
000001f0: 664b 55be dab1 a5bd 22df 823e f962 08be
00000200: fb96 833c a134 613e 5e64 873e b58f 6bbe
00000210: 3f40 783d 00ac 27be f189 2a3e 7089 26be
00000220: 8673 013e 842f 293e d59a 8e3e d788 313e
00000230: e45f 4e3d b6cb 613d 2672 d43c 018b c73d
00000240: 1e09 ab3d 7712 e83d d253 313e 5c72 97bc
00000250: cba1 6e3e 0450 52bc 4c73 6fbc 7784 613d
00000260: d0de 1f3e 5503 86be 3f3d 90be aa7b 02be
00000270: 226e 953d 4e34 d23d ed60 e7bd 1c03 f2bc
00000280: 6bef 3abe b0cf 373c ab24 f93d 630f 613e
00000290: 0cad 8d3e 963c 943d d183 bdbe 3679 96be
000002a0: b64c 513d 8db6 a33d 6499 db3d 3b56 9a3d
000002b0: 786f f4bd efbf dfbd 2fab 81be e33c 4dbe
000002c0: 1ab9 d63c 00eb d2bd df92 4bbe 46fe 093e
000002d0: 0f8f 92be 072d 0e3e f2e9 953d 420e 42be
000002e0: 754d 57be 8743 54be a89f 063e 43d7 31be
000002f0: b3f5 08be 1011 9fbd f1c9 ed3d b573 64be
00000300: 746e 043e db5e 11be 4241 fe3d 8fe7 ef3d
00000310: 9107 09be 9c3b 27be 8c06 b7be 2f8b ac3e
00000320: 7123 0abe 00d5 62be d8cd 643e 2f66 343e
00000330: a7dc 423e c02c 053c 4df4 b83d d4e4 b83c
00000340: 2923 07be 6a54 2d3e cbc0 3ebe 5c21 3e3c
00000350: 9ad2 b33d e2a3 8a3e d6ed ea3c 50e5 29be
00000360: e869 383e f351 8c3d 3425 5a3e a6bb 4ebe
00000370: 7950 a23d 230b 633c e591 573e de31 41be
00000380: 7d84 16be 2430 1ebe 20ab 0dbe 80eb 2fbe
00000390: 2af1 8c3e 00c3 87be c9ee 743e 8942 9ebd
000003a0: 669f 9dbd 7401 37be a966 ff3c 9208 18be
000003b0: eeff 66be d3b9 8cbe fc09 bd3d d9aa 2e3e
000003c0: 0de1 70bd de2c 00be 16d7 92be bc24 24be
000003d0: 9318 4a3b e55e 3ebe a713 6d3e d55c 2c3e
000003e0: ae6f 433e 024b 9c3d 6568 50be 3ead c33d
000003f0: 9003 ad3d 071a d8bd 61da e5bd 4b9c 8bbd

shared_body.2.weight f4 [64, 256]
0.047593195 -0.04298288 -0.03800303 0.1346213 -0.08214218 0.009987481 -0.036175974 0.55247647
0.15957555 -0.010802552 0.12923285 0.026473045 0.04626227 0.006253688 -0.026618022 0.039660368
0.025428038 -0.05415678 0.22205776 0.30799082 0.27328938 0.086115666 0.09866885 0.13587385
-0.23305336 -0.101287894 -0.057698064 0.051789615 -0.034983497 -0.21361952 -0.091213904 -0.22581448
-0.047629833 0.037358124 0.09238848 0.1635775 -0.04762483 0.11084773 -0.04699573 -0.026336743
0.11851451 -0.28612918 0.01436143 -0.07383649 0.21385652 0.011213721 0.19401805 0.056641277
0.21799475 0.051961154 -0.2758557 -0.051148206 -0.10379605 -0.048374776 0.056243148 0.023324639
0.11200939 -0.20568924 0.096241206 0.013461624 -0.010647386 -0.032759227 0.058293335 -0.008026278
-0.07428713 -0.17744875 0.37263113 -0.100987904 -0.2612898 0.006778362 -0.18677686 0.09558855
-0.1911537 0.3263153 0.5124395 0.15397193 -0.04568238 0.25673342 -0.025399238 0.15195478
-0.3357675 0.049526915 0.087487295 -0.0018988326 -0.25770894 0.118631795 0.01490064 -0.10314004
-0.013912792 0.004125543 0.0986569 -0.14720869 0.0502859 -0.20964544 -0.05237403 -0.060477868
0.026934119 0.030818267 -0.08753849 0.060691975 -0.007368906 0.03147877 0.15158562 -0.20439954
-0.011596614 -0.122703746 -0.054330245 0.09527524 0.060737554 0.12389449 -0.06917786 0.06476489
-0.18060364 -0.22300154 -0.12520507 0.049285907 -0.019457694 -0.22453329 0.21692629 -0.012869422
0.33414748 0.016292037 0.29514828 0.106664516 -0.04142966 -0.05748163 0.26778707 0.06956132
-0.12808582 0.05060244 0.12694313 0.004030414 -0.11387714 -0.16785033 -0.03398365 0.38427258
-0.23391141 -0.029235046 -0.17881455 0.00017329142 0.1795853 -0.06762486 -0.05187014 -0.006122401
-0.022417296 -0.008902782 0.030907122 0.205235 0.07173221 0.10000578 -0.36355782 -0.15641737
-0.04210515 0.08570426 -0.09444921 -0.040402126 0.14792125 0.18819655 -0.11707621 -0.04175411
-0.2560675 -0.039826825 0.055585723 -0.24221395 0.071579166 -0.0794865 0.04864497 0.036509514
-0.13142288 0.03347548 0.080591425 -0.11103361 -0.16975197 0.06506567 0.005947421 -0.062330768
0.00072480814 0.0483898 0.196535 0.05159478 0.39989093 0.027980391 -0.030848436 0.0044543147
-0.057918422 0.06595035 0.14729196 -0.0049027624 0.051976964 -0.35939533 0.0126157515 -0.1932701
0.15386422 0.09828108 -0.08479488 0.23806284 -0.015924452 0.008806884 0.047031965 -0.23174436
0.2142774 0.00888635 0.031572532 -0.0023845048 0.07092029 -0.29586512 -0.11001063 0.23092282
-0.12908429 0.03638852 0.15290643 0.06521901 -0.027112767 -0.13137974 -0.24911499 -0.0008754092
-0.17589296 0.14585465 -0.014119598 0.038123176 0.4444803 0.12173547 0.15948145 -0.023444526
0.005440502 0.054185968 0.112711675 0.047962807 0.13592719 0.0045519737 0.013740298 -0.1336873
0.023134328 -0.7836203 0.10341099 -0.04441579 -0.042508066 -0.046134643 0.06713832 0.034016807
-0.07705782 0.050495237 -0.37495393 -0.040243223 0.1291383 0.07096597 -0.13453095 -0.0015398271
-0.028281435 -0.23167841 0.039495945 -0.1268902 0.15638407 0.17232226 -0.19891809 -0.03644131
00000000: 15f1 423d d10e 30bd 11a9 1bbd 2bda 093e
00000010: 293a a8bd 88a2 233c 422d 14bd 196f 0d3f
00000020: c667 233e 30fd 30bc 9e55 043e 00de d83c
00000030: 827d 3d3d bdeb cc3b 0a0e dabc e972 223d
00000040: 764e d03c 80d3 5dbd 1c63 633e f9b0 9d3e
00000050: 96ec 8b3e 695d b03d e512 ca3d 8422 0b3e
00000060: 8aa5 6ebe 0770 cfbd ce54 6cbd 5921 543d
00000070: db4a 0fbd 13bf 5abe 5bce babd e93b 67be
00000080: 8017 43bd d504 193d 2c36 bd3d dc80 273e
00000090: 4112 43bd 2204 e33d 987e 40bd 27c0 d7bc
000000a0: bcb7 f23d 867f 92be 344c 6b3c 9637 97bd
000000b0: 34fd 5a3e c1b9 373c abac 463e af00 683d
000000c0: 043a 5f3e 38d5 543d f53c 8dbe c880 51bd
000000d0: 0693 d4bd a124 46bd 375f 663d 5013 bf3c
000000e0: 2e65 e53d 33a0 52be 1c1a c53d 258e 5c3c
000000f0: 6072 2ebc 8a2e 06bd fec4 6e3d a680 03bc
00000100: da23 98bd 20b5 35be 82c9 be3e bfd2 cebd
00000110: c7c7 85be 061d de3b 6f42 3fbe eec3 c33d
00000120: ccbd 43be cd12 a73e 3c2f 033f d1aa 1d3e
00000130: 731d 3bbd 9072 833e 1012 d0bc 099a 1b3e
00000140: b8e9 abbe bcdc 4a3d 8a2c b33d 40e2 f8ba
00000150: 6df2 83be 3af5 f23d d021 743c 163b d3bd
00000160: 7bf2 63bc 902f 873b a10c ca3d e0bd 16be
00000170: 96f8 4d3d 4bad 56be 2786 56bd a4b7 77bd
00000180: f1a4 dc3c 9776 fc3c 6147 b3bd 2698 783d
00000190: dd76 f1bb e2ef 003d 4339 1b3e 1d4e 51be
000001a0: b9ff 3dbc 1a4c fbbd 6489 5ebd aa1f c33d
000001b0: f1c7 783d 65bc fd3d 1fad 8dbd 74a3 843d
000001c0: 29f0 38be 845a 64be c235 00be 05e0 493d
000001d0: be65 9fbc 0eec 65be ed21 5e3e 45da 52bc
000001e0: 6115 ab3e e176 853c ad1d 973e ed72 da3d
000001f0: 26b2 29bd dc71 6bbd 631b 893e 2a76 8e3d
00000200: ee28 03be 8144 4f3d 61fd 013e 9011 843b
00000210: 6b38 e9bd f5e0 2bbe 7132 0bbd 60bf c43e
00000220: 7986 6fbe 567e efbc 291b 37be 90b5 3539
00000230: 35e5 373e e77e 8abd c975 54bd 6c9e c8bb
00000240: 7aa4 b7bc f9dc 11bc ef30 fd3c 2029 523e
00000250: 56e8 923d d5cf cc3d 4024 babe e02b 20be
00000260: 7376 2cbd b785 af3d 966e c1bd b37c 25bd
00000270: ab78 173e 99b6 403e a7c5 efbd 5c06 2bbd
00000280: 481b 83be 7421 23bd dbad 633d ef06 78be
00000290: 1998 923d d1c9 a2bd f33f 473d 008b 153d
000002a0: b893 06be 961d 093d 1e0d a53d 9765 e3bd
000002b0: 76d3 2dbe 2641 853d 95e2 c23b 8c4e 7fbd
000002c0: 0d01 3e3a 6234 463d 7940 493e 0c55 533d
000002d0: 81be cc3e 2237 e53c dcb5 fcbc 80f5 913b
000002e0: de3b 6dbd fa10 873d b4d3 163e 5aa7 a0bb
000002f0: cce5 543d aa02 b8be 4cb2 4e3c 99e8 45be
00000300: 958e 1d3e 9747 c93d f0a8 adbd bfc6 733e
00000310: ff73 82bc c04a 103c 97a4 403d 654e 6dbe
00000320: 896b 5b3e 0e98 113c 3352 013d 5a45 1cbb
00000330: a83e 913d a27b 97be 414d e1bd 0877 6c3e
00000340: ac2e 04be 210c 153d 8193 1c3e 8b91 853d
00000350: 981b debc 6988 06be 0018 7fbe b87b 65ba
00000360: 491d 34be ec5a 153e e355 67bc 0c27 1c3d
00000370: ec92 e33e 7250 f93d 1b4f 233e bc0e c0bc
00000380: 3d46 b23b 1bf2 5d3d 61d5 e63d a674 443d
00000390: 7f30 0b3e b928 953b fd1e 613c 53e5 08be
000003a0: 3484 bd3c 579b 48bf 24c9 d33d 55ed 35bd
000003b0: f01c 2ebd aef7 3cbd d17f 893d 3555 0b3d
000003c0: 7ed0 9dbd 18d4 4e3d f6f9 bfbe 14d6 24bd
000003d0: d53c 043e 9b56 913d 7bc2 09be 06d4 c9ba
000003e0: 78ae e7bc 1b3d 6dbe 80c6 213d 81ef 01be
000003f0: 2523 203e 3f75 303e 2fb1 4bbe 7c43 15bd

shared_body.2.bias f4 [64]
-0.036187872 -0.045738406 -0.034208514 -0.03374772 -0.0023693796 0.0007152155 0.06017773 0.013558538
0.038989898 -0.053473912 0.013728191 -0.033943903 0.01665682 -0.029033743 -0.089854725 0.05170137
-0.06216229 0.06733153 -0.067801766 0.047567107 -0.017658304 0.045066055 0.030523881 0.12910266
0.00966046 0.07242805 -0.018298531 0.014411865 0.04206039 -0.07724088 0.034470405 0.13287169
-0.063410155 -0.06008644 -0.021204589 0.06818972 -0.056430034 -0.048584655 -0.014039099 0.09032238
0.06643488 -0.069434665 -0.021995876 0.053751275 -0.0035684723 0.061586063 0.042274535 -0.059551384
-0.04496368 -0.01704399 0.03470763 0.020192578 -0.06985665 0.013658253 0.017684126 0.009521958
0.026061388 -0.02966155 0.09552259 -0.041440293 -0.03436182 0.05563149 0.013977982 0.005922258
00000000: bc39 14bd 3258 3bbd 3a1e 0cbd 0d3b 0abd
00000010: 9847 1bbb 4d7d 3b3a ec7c 763d a124 5e3c
00000020: dfb3 1f3d 7607 5bbd 35ec 603c c308 0bbd
00000030: e273 883c 2cd8 edbc c105 b8bd d1c4 533d
00000040: e39d 7ebd 1de5 893d a7db 8abd bad5 423d
00000050: 26a8 90bc 2f97 383d 380d fa3c 7d33 043e
00000060: e846 1e3c 2855 943d cde6 95bc be1f 6c3c
00000070: 8447 2c3d 7730 9ebd d730 0d3d 840f 083e
00000080: 2fdd 81bd 331d 76bd 3fb5 adbc 0da7 8b3d
00000090: 2e23 67bd b400 47bd 4004 66bc f1fa b83d
000000a0: 030f 883d c333 8ebd b230 b4bc 4c2a 5c3d
000000b0: 08dd 69bb ab41 7c3d 1028 2d3d 27ec 73bd
000000c0: d62b 38bd d69f 8bbc 9629 0e3d e86a a53c
000000d0: 0111 8fbd ddc6 5f3c 4dde 903c fd01 1c3c
000000e0: b17e d53c c7fc f2bc 59a1 c33d 4cbd 29bd
000000f0: fbbe 0cbd d8dd 633d e803 653c 800f c23b

shared_body.4.weight f4 [32, 64]
-0.060240902 -0.015471816 0.07346272 -0.21277578 -0.12920615 0.09988724 0.035674553 0.114525676
-0.030730443 -0.113686875 0.043730516 -0.45233396 0.0048931055 -0.0302875 0.25338614 0.0633921
0.040908944 0.15882385 0.06337188 0.026635626 0.022524463 0.14381833 -0.083473854 -0.21748732
0.078139655 -0.01337408 -0.10744951 0.09770621 0.09787438 -0.44645816 -0.07377677 0.13068509
-0.113895096 0.09549353 -0.06778794 -0.059898496 0.007874744 0.019753182 0.04992891 0.06667884
-0.0854552 -0.12316968 0.11613659 0.07065422 0.1399139 0.016270926 -0.0022030256 0.20954895
-0.07650707 -0.6776039 -0.1580514 -0.034822904 -0.030257983 0.09239659 0.033218954 0.07923256
-0.14410315 0.22175574 0.17239836 -0.023844194 0.09739081 0.12962304 0.020239642 0.08183877
-0.028214313 -0.0035874387 0.39547646 0.17738362 -0.41328466 -0.027591854 0.35354048 0.20201826
-0.42685926 0.16653413 -0.07277063 -0.0098832045 -0.17106922 0.12484499 0.2532106 0.020645855
0.034071505 -0.07865134 0.049884044 -0.08049535 0.19701698 -0.050122872 -0.037782602 -0.26465583
0.17078035 -0.29093105 -0.06290782 -0.12889321 -0.025639268 0.058441274 0.33407652 -0.024571251
-0.09300634 0.019381464 -0.076859355 -0.14651653 0.105150394 0.021372378 0.09535306 0.11016229
0.02829498 -0.12552221 -0.027586058 0.23405711 -0.090533085 -0.12413334 -0.20829949 0.0257045
0.05599087 0.11121459 -0.8695228 0.0026874258 0.05642405 0.027547957 0.06779437 -0.016880423
0.03587876 0.71770704 0.05016665 -0.019375995 -0.10980331 -0.14890096 -0.06569578 0.031763192
-0.16562408 0.06707528 -0.0018195647 -0.02994039 -0.34934092 0.09855332 -0.028329274 0.11283846
0.0187884 0.02205348 -0.028573925 -0.38621363 0.121586 0.068773195 0.17376126 0.06698644
0.031154845 0.22756243 -0.09882976 0.09247909 -0.056707434 0.037029624 7.6664895e-05 -0.2800489
0.07213342 0.12623931 0.056471832 -0.08716388 -0.018434394 -0.24577257 0.04363631 -0.36587277
-0.060521353 0.047282815 -0.06017211 0.21398582 0.089024805 0.07790258 -0.074923486 -0.100634165
0.08372186 -0.1119981 0.12497338 -0.054175425 0.07906151 -0.16658708 -0.036665164 -0.13279425
0.18850693 -0.19056 -0.74176717 -0.112429634 0.102896616 -0.08165752 -0.021645812 -0.00995485
-0.14177847 0.5407814 0.081797935 0.021430224 0.052944165 -0.16825531 0.033776563 0.048397116
-0.0153326085 -0.06428864 0.07448671 0.13296577 -0.33574295 -0.046604156 -0.25938502 0.151064
-0.2187201 0.03187562 -0.09191142 -0.51890135 -0.2490508 0.0012323572 -0.034532472 0.17245977
0.05867413 -0.04175829 -0.18252917 -0.08397875 -0.023579676 0.11846301 -0.06955018 -0.30532566
0.22622555 0.03159182 -0.096015505 -0.028324757 0.2681029 -0.2720784 0.13476364 0.07083028
-0.052446723 0.06999932 -0.010215657 0.036659822 -0.02648326 -0.048641797 -0.05447044 0.120961174
0.06302859 -0.09948054 0.09740578 0.09008053 0.075377226 0.095976986 0.13031188 0.18855426
0.20870309 -0.19747667 -0.6551557 -0.007640504 -0.029902397 0.05134649 -0.061865557 0.046454277
-0.06204168 0.32910585 0.120379515 -0.034142897 -0.040498976 -0.09618527 -0.10922446 -0.02155187
00000000: 2abf 76bd 807d 7dbc 9f73 963d e5e1 59be
00000010: 9e4e 04be ae91 cc3d 7b1f 123d 708c ea3d
00000020: 69be fbbc aad4 e8bd c51e 333d 5198 e7be
00000030: 5856 a03b 7e1d f8bc d4bb 813e b8d3 813d
00000040: 2390 273d b8a2 223e 1ec9 813d f532 da3c
00000050: 3985 b83c 1d45 133e 57f4 aabd ffb4 5ebe
00000060: af07 a03d f51e 5bbc 7d0e dcbd 321a c83d
00000070: 5d72 c83d 2a96 e4be 4618 97bd 50d2 053e
00000080: d541 e9bd 1d92 c33d 67d4 8abd 2058 75bd
00000090: 1205 013c 6dd1 a13c 4282 4c3d ea8e 883d
000000a0: 2303 afbd 6340 fcbd 05d9 ed3d 29b3 903d
000000b0: 9745 0f3e 9b4a 853c a360 10bb 0094 563e
000000c0: bdaf 9cbd 7377 2dbf 3ad8 21be 76a2 0ebd
000000d0: 97df f7bc 6c3a bd3d 9910 083d ae44 a23d
000000e0: c78f 13be f013 633e 3289 303e e654 c3bc
000000f0: d574 c73d e7bb 043e 9bcd a53c 169b a73d
00000100: b421 e7bc 3c1b 6bbb e47b ca3e 0da4 353e
00000110: 0c9a d3be 5008 e2bc 4203 b53e e0dd 4e3e
00000120: 4c8d dabe ec87 2a3e c508 95bd 2aed 21bc
00000130: c52c 2fbe bbae ff3d d2a4 813e 7f21 a93c
00000140: 908e 0b3d f413 a1bd 3653 4c3d bfda a4bd
00000150: d2be 493e a44d 4dbd eec1 1abd f880 87be
00000160: 0be1 2e3e eaf4 94be d1d5 80bd 95fc 03be
00000170: 7109 d2bc 1e60 6f3d 140c ab3e a649 c9bc
00000180: 1c7a bebd e0c5 9e3c 7068 9dbd 6e08 16be
00000190: 1759 d73d 2015 af3c 7748 c33d c49c e13d
000001a0: e0ca e73c e588 00be 28fc e1bc abac 6f3e
000001b0: 6969 b9bd 9f39 febd 764c 55be 3e92 d23c
000001c0: af56 653d 7ac4 e33d 0c99 5ebf 861f 303b
000001d0: e81c 673d 41ac e13c c6d7 8a3d d048 8abc
000001e0: 9bf5 123d a6bb 373f 8c7b 4d3d 68ba 9ebc
000001f0: 8fe0 e0bd 7e79 18be 828b 86bd 1f1a 023d
00000200: 5c99 29be c45e 893d 767e eeba 8c45 f5bc
00000210: d0dc b2be 53d6 c93d cb12 e8bc da17 e73d
00000220: 21ea 993c 80a9 b43c dd13 eabc cbbd c5be
00000230: 1502 f93d f6d8 8c3d 79ee 313e 3030 893d
00000240: 7238 ff3c 2006 693e 4267 cabd ad65 bd3d
00000250: 0e46 68bd 60ac 173d 27c7 a038 9262 8fbe
00000260: b0ba 933d e144 013e 024f 673d fa82 b2bd
00000270: ba03 97bc ceab 7bbe fdbb 323d ad53 bbbe
00000280: 3de5 77bd a0ab 413d 0877 76bd 191f 5b3e
00000290: a352 b63d 638b 9f3d 7c71 99bd 4919 cebd
000002a0: 5e76 ab3d 435f e5bd 0bf2 ff3d 0de7 5dbd
000002b0: 00eb a13d ce95 2abe 362e 16bd 37fb 07be
000002c0: f607 413e 2922 43be 74e4 3dbf 8241 e6bd
000002d0: 76bb d23d 0f3c a7bd 8f52 b1bc ab19 23bc
000002e0: 602e 11be a670 0a3f ad85 a73d 708e af3c
000002f0: fbdb 583d 1f4b 2cbe 4b59 0a3d 0e3c 463d
00000300: 9f35 7bbc c3a9 83bd 7d8c 983d 2e28 083e
00000310: 80e6 abbe 00e4 3ebd 1dce 84be 85b0 1a3e
00000320: 29f8 5fbe 0390 023d 0e3c bcbd b8d6 04bf
00000330: 2c07 7fbe 0c87 a13a ec71 0dbd 4b99 303e
00000340: 4954 703d be0a 2bbd ede8 3abe 0dfd abbd
00000350: 2a2a c1bc bc9c f23d 5370 8ebd a553 9cbe
00000360: aca7 673e 6d66 013d c7a3 c4bd 5209 e8bc
00000370: c944 893e dc4d 8bbe 7bff 093e 770f 913d
00000380: 60d2 56bd ce5b 8f3d 925f 27bc 9c28 163d
00000390: 6cf3 d8bc 9f3c 47bd 651c 5fbd 7eba f73d
000003a0: 2215 813d 74bc cbbd ae7c c73d 247c b83d
000003b0: 605f 9a3d 958f c43d 7a70 053e 5e14 413e
000003c0: 43b6 553e 5337 4abe 49b8 27bf 315d fabb
000003d0: dff5 f4bc b250 523d bd66 7dbd d746 3e3d
000003e0: 6b1f 7ebd 9080 a83e 8989 f63d 6cd9 0bbd
000003f0: 41e2 25bd c8fc c4bd 13b1 dfbd 8c8d b0bc

shared_body.4.bias f4 [32]
0.07747547 0.0155736245 0.026618063 0.021498118 0.031555843 0.008887511 0.034623254 0.06498262
-0.030426769 0.04840888 -0.021220654 -0.10304265 -0.054331787 -0.07744934 0.11993971 0.025865385
-0.11132982 0.10233827 0.04776728 0.10270312 0.16617467 0.127398 0.117306404 0.122654244
-0.007627316 -0.018810188 -0.016659526 0.20439823 0.09092681 -0.06529417 0.11735584 0.07032297
00000000: 76ab 9e3d 8428 7f3c 200e da3c d21c b03c
00000010: b340 013d ec9c 113c 1dd1 0d3d 9c15 853d
00000020: 8f41 f9bc 6448 463d f0d6 adbc 0608 d3bd
00000030: 028b 5ebd c29d 9ebd f3a2 f53d a5e3 d33c
00000040: e300 e4bd ba96 d13d a0a7 433d 0356 d23d
00000050: b129 2a3e 9f74 023e 573e f03d 2632 fb3d
00000060: 90ee f9bb d317 9abc 8f79 88bc c54d 513e
00000070: d637 ba3d f3b8 85bd 4258 f03d 7d05 903d

shared_body.6.weight f4 [32, 32]
0.33149758 0.31300494 0.37063605 0.5920955 -0.13133532 0.16790839 -0.09626698 0.4969323
-0.19907656 -0.12224785 -0.07806278 -0.029753346 -0.16521125 0.30335328 0.011208657 0.021481333
-0.023068408 -0.09849144 0.20583417 0.59071565 0.16507791 0.24429348 -0.54543674 0.40836966
0.02270519 -0.122081876 -0.026444184 0.3459808 -0.044566292 0.08745171 0.29859447 0.3429666
-0.2066936 -0.061153587 0.021081077 -0.082999125 0.0031175455 0.16312155 0.023254234 -0.2614557
0.09843575 -0.09555797 0.15788668 0.116965875 0.1576271 0.042254653 0.25253487 0.114060625
0.0023087854 -0.06216941 0.11742406 -0.38277158 0.06308797 0.2738868 -0.022428703 -0.32231948
0.14757554 0.36379048 0.14607503 0.19915669 0.25135618 -0.017443925 -0.030257886 -0.4977153
0.034403235 -0.013600097 0.043880716 0.051783737 0.037002575 -0.118961774 -0.105598174 -0.15133777
0.0566102 -0.065505564 -0.14570218 -0.10932087 0.15023579 -0.08455731 0.10631737 -0.019861534
-0.10541513 -0.046276994 -0.0011805024 -0.09426919 0.10758104 -0.17985941 -0.089386046 -0.15064974
0.33536053 0.018971521 0.1127464 0.17492193 0.04332906 0.06788753 0.20141385 -0.19864969
0.38934144 0.4780793 0.43791053 0.17058578 -0.34248725 -0.21897422 -0.041677486 0.2850695
-0.19236864 0.09136513 -0.15737246 0.07644933 -0.2413597 0.080014005 -0.032275673 -0.21358728
-0.016265232 -0.34913087 0.26560923 0.25536442 0.19913343 0.17940362 -0.5789909 0.4587504
0.16478156 -0.19923747 -0.078169994 0.09760348 -0.42165658 -0.16467555 0.18897143 0.46503776
0.12259407 0.30592376 0.4439633 -0.20691542 -0.21351025 0.18390813 -0.2975296 0.36759052
0.56562626 -0.16509993 -0.11924207 -0.020787215 -0.46901587 0.49910885 -0.16099846 0.030461526
0.059299324 0.33820686 0.21712491 0.39763778 -0.062968805 0.06781942 0.07306638 0.13041495
-0.044403225 -0.3421493 0.04205027 -0.030742258 -0.4864972 -0.0001180295 0.35934952 -0.33731544
-0.3393865 -0.19913948 -0.2835823 -0.33757186 0.12708911 0.20275204 0.015255125 -0.15322514
0.34517476 -0.060448308 0.10308644 -0.042826492 -0.31533828 -0.004617272 -0.052798484 0.16233075
0.054063074 0.3483915 0.07538234 -0.044131897 -0.19368322 0.047495615 0.24212597 -0.3196645
-0.03998685 0.06912928 -0.0694698 0.060087245 0.0039049266 0.013214149 0.05522951 -0.60782033
0.24675494 0.23422569 0.2091341 0.022754407 0.008791271 0.051314708 -0.15707919 0.08976141
0.2189879 0.14161612 -0.48555192 -0.11500381 -0.53143907 -0.05458749 0.08778954 -0.15039687
-0.13579929 0.20045745 -0.07526095 0.12541181 -0.025263827 0.04534036 0.16964555 0.24478991
-0.08412219 -0.42998144 -0.06344894 0.01049359 -0.05531176 -0.062534966 0.2838001 -0.106699005
0.0022376678 -0.5843904 -0.25868315 -0.12658888 0.19685717 -0.012201737 0.11524025 0.034746945
0.022705158 0.022468746 -0.007409193 -0.15119773 -0.17150755 -0.099789955 -0.1509698 0.048320826
-0.15953188 0.12381715 0.043420997 -0.18035963 0.2053864 -0.06383688 0.30821297 -0.088607535
0.12862897 -0.08011596 -0.16703649 0.2033275 0.14090218 0.11928882 0.17523576 -0.52662796
00000000: 0dba a93e 2f42 a03e 02c4 bd3e 9293 173f
00000010: c47c 06be 2df0 2b3e 9f27 c5bd e96d fe3e
00000020: bada 4bbe 155d fabd 61df 9fbd 4abd f3bc
00000030: 232d 29be 1f51 9b3e 84a4 373c 9ff9 af3c
00000040: f5f9 bcbc e1b5 c9bd 31c6 523e 2439 173f
00000050: 2f0a 293e 1228 7a3e bea1 0bbf d415 d13e
00000060: 3c00 ba3c 1006 fabd 79a1 d8bc 6524 b13e
00000070: 258b 36bd e219 b33d 60e1 983e 5199 af3e
00000080: 7da7 53be 2f7c 7abd 39b2 ac3c 72fb a9bd
00000090: bc4f 4c3b 5609 273e aa7f be3c 86dd 85be
000000a0: af98 c93d e6b3 c3bd 0cad 213e ce8b ef3d
000000b0: 0069 213e 3713 2d3d 404c 813e 9e98 e93d
000000c0: fe4e 173b 5aa5 7ebd 077c f03d a3fa c3be
000000d0: 4434 813d e43a 8c3e 66bc b7bc 0f07 a5be
000000e0: 0b1e 173e bf42 ba3e b194 153e bbef 4b3e
000000f0: c2b1 803e 90e6 8ebc 63df f7bc 8ad4 febe
00000100: 68ea 0c3d f1d2 5ebc 44bc 333d 2f1b 543d
00000110: 0390 173d 3ba2 f3bd db43 d8bd 4af8 1abe
00000120: 19e0 673d c827 86bd f432 15be 9fe3 dfbd
00000130: 69d7 193e 622c adbd ecbc d93d a8b4 a2bc
00000140: e3e3 d7bd f28c 3dbd 16bb 9aba 3510 c1bd
00000150: 7353 dc3d 112d 38be 0810 b7bd ed43 1abe
00000160: 60b4 ab3e 2a6a 9b3c 96e7 e63d bc1e 333e
00000170: d079 313d 9e08 8b3d 6f3f 4e3e d36a 4bbe
00000180: c357 c73e cfc6 f43e cf35 e03e 0aae 2e3e
00000190: 7d5a afbe c73a 60be 03b6 2abd a1f4 913e
000001a0: 49fc 44be a41d bb3d 3f26 21be 7791 9c3d
000001b0: ff26 77be 62de a33d 7f33 04bd a0b6 5abe
000001c0: aa3e 85bc 48c1 b2be effd 873e 20bf 823e
000001d0: a2e9 4b3e 95b5 373e bf38 14bf 55e1 ea3e
000001e0: 7fbc 283e e804 4cbe 9717 a0bd 55e4 c73d
000001f0: 5fe3 d7be b5a0 28be ba81 413e 6e19 ee3e
00000200: 9a12 fb3d 0aa2 9c3e 284f e33e a3e1 53be
00000210: 6ea2 5abe 6a52 3c3e cd55 98be d334 bc3e
00000220: e2cc 103f f50f 29be 3035 f4bd f349 aabc
00000230: d922 f0be 328b ff3e c8dc 24be 738a f93c
00000240: d9e3 723d 7329 ad3e fe55 5e3e 2e97 cb3e
00000250: caf5 80bd e8e4 8a3d d4a3 953d 7f8b 053e
00000260: 28e0 35bd 312e afbe e73c 2c3d 30d7 fbbc
00000270: 2916 f9be 9b86 f7b8 a9fc b73e 9cb4 acbe
00000280: 11c4 adbe 38eb 4bbe b331 91be 38d6 acbe
00000290: a623 023e 3b9e 4f3e a2f0 793c 0de7 1cbe
000002a0: bfba b03e a598 77bd fc1e d33d d56a 2fbd
000002b0: 0574 a1be 7c4c 97bb 3943 58bd 083a 263e
000002c0: 3e71 5d3d 5f60 b23e 0e62 9a3d a6c3 34bd
000002d0: e554 46be c38a 423d dfef 773e 11ab a3be
000002e0: 40c9 23bd a793 8d3d 2f46 8ebd 0b1e 763d
000002f0: cce9 7f3b 2880 583c 5738 623d 1d9a 1bbf
00000300: 54ad 7c3e dcd8 6f3e 4027 563e 7367 ba3c
00000310: 4309 103c 5f2f 523d 5ed9 20be d5d4 b73d
00000320: 5d3e 603e d103 113e 439a f8be 1e87 ebbd
00000330: 640c 08bf 2297 5fbd 01cb b33d a301 1abe
00000340: f80e 0bbe b844 4d3e 6a22 9abd f46b 003e
00000350: 16f6 cebc d0b6 393d 90b7 2d3e 35aa 7a3e
00000360: 4148 acbd 8726 dcbe 85f1 81bd 4eed 2b3c
00000370: 968e 62bd 5512 80bd 3f4e 913e 0285 dabd
00000380: d6a5 123b 9c9a 15bf 1e72 84be 84a0 01be
00000390: ed94 493e cbe9 47bc 1503 ec3d d052 0e3d
000003a0: 2b00 ba3c 6010 b83c d1c8 f2bb 94d3 1abe
000003b0: ad9f 2fbe ad5e ccbd d497 1abe 0fec 453d
000003c0: 535c 23be d993 fd3d 37da 313d 32b0 38be
000003d0: d050 523e e9bc 82bd 17ce 9d3e de77 b5bd
000003e0: 50b7 033e d613 a4bd 9d0b 2bbe 1635 503e
000003f0: a948 103e b24d f43d 0171 333e 17d1 06bf

shared_body.6.bias f4 [32]
0.022587879 -0.047632307 -0.11721723 -0.08148245 0.13571583 0.09241106 0.1700176 0.10977608
0.05940915 -0.06013241 -0.07096793 0.014159904 -0.19824204 0.13739797 0.07997996 0.07853179
0.09087373 -0.17210253 -0.0841162 -0.03359849 0.12115522 0.12920305 0.041180875 0.20944096
0.14963917 0.12848178 -0.19203727 -0.14306939 -0.16821353 0.21842505 0.19661173 -0.07323156
00000000: 370a b93c 181a 43bd 960f f0bd 45e0 a6bd
00000010: 17f9 0a3e 0342 bd3d 1819 2e3e 48d2 e03d
00000020: 0257 733d 674d 76bd a257 91bd f1fe 673c
00000030: f6ff 4abe 0eb2 0c3e 89cc a33d 46d5 a03d
00000040: 021c ba3d a53b 30be 1d45 acbd 929e 09bd
00000050: 3a20 f83d ce4d 043e 47ad 283d b177 563e
00000060: 033b 193e ba90 033e 6ba5 44be c880 12be
00000070: 2b40 2cbe d1aa 5f3e 9654 493e 6efa 95bd

actor_head.weight f4 [4, 32]
0.3068273 -0.24181351 -0.27674583 0.66359764 0.14532113 -0.32576352 0.11171526 -0.45182812
0.38856208 -0.0045541837 0.074991554 0.03494314 0.07126521 -0.31513467 0.41950694 0.41829982
-0.24794644 0.13073139 0.24643722 -0.094332054 0.3778302 0.33560342 0.3633395 -0.22911064
-0.27436194 0.33675414 -0.026062513 -0.5055685 0.03737423 -0.6428455 0.29345492 0.06745586
-0.036953572 -0.28207746 0.33567992 -0.02322132 0.27418065 0.28131482 0.42608103 0.09535925
0.45623878 0.3348205 0.13687919 -0.41932523 -0.17527321 -0.07918782 -0.2488082 -0.08864389
-0.3211204 -0.021842346 -0.09393422 0.0817238 -0.76088995 -0.12830313 0.0031843195 0.5549836
0.5324646 -0.25349396 0.10358943 0.74320257 0.05837767 0.025094647 -0.3848082 0.05681172
-0.22081988 0.3876877 0.034304276 -0.47140637 -0.49819323 -0.13380414 -0.47814277 0.24057387
-0.62236977 -0.32105085 0.12848455 0.26798108 0.4592957 0.4916065 -0.25241488 0.14482477
0.17521246 -0.09064824 -0.4818303 0.00317117 0.56981283 0.22664331 -0.12728693 -0.37919587
-0.56361896 -0.1514749 -0.08663423 -0.36038184 -0.071934536 0.35231906 0.20012365 0.059258044
-0.4000137 0.5532136 -0.11702787 -0.8219667 -0.011211977 0.29904813 -0.33220974 0.24964951
-0.19241275 0.4072482 0.15689328 0.1091366 -0.09260981 0.057351973 -0.32983074 -0.56199545
0.49804348 0.020136267 0.085830495 0.41153997 -0.31892616 -0.4839697 -0.424264 -0.97543234
-0.0117000295 -0.0036911995 -0.08798622 -0.33052537 0.11310919 0.68683845 -0.2707614 -0.07903701
00000000: 7818 9d3e f69d 77be a1b1 8dbe 89e1 293f
00000010: 10cf 143e 7aca a6be f8ca e43d 0456 e7be
00000020: 9cf1 c63e 433b 95bb 2c95 993d 8a20 0f3d
00000030: 7ff3 913d 5559 a1be 9dc9 d63e 652b d63e
00000040: ace5 7dbe 73de 053e 0a5a 7c3e 2a31 c1bd
00000050: f672 c13e 36d4 ab3e a307 ba3e fb9b 6abe
00000060: 2b79 8cbe 0a6b ac3e 0d81 d5bc f06c 01bf
00000070: b815 193d 8691 24bf b93f 963e 4c26 8a3d
00000080: a15c 17bd 756c 90be 3dde ab3e a33a bebc
00000090: 6861 8c3e 7f08 903e 4b27 da3e b64b c33d
000000a0: 2198 e93e 986d ab3e 0f2a 0c3e ccb1 d6be
000000b0: d27a 33be 392d a2bd 94c7 7ebe ee8a b5bd
000000c0: e569 a4be b8ee b2bc 9660 c0bd cf5e a73d
000000d0: afc9 42bf e561 03be 04b0 503b 6813 0e3f
000000e0: 9a4f 083f f6c9 81be b226 d43d 8642 3e3f
000000f0: 6c1d 6f3d 4a93 cd3c 9505 c5be 68b3 683d
00000100: 9b1e 62be 017f c63e a482 0c3d 2d5c f1be
00000110: 2f13 ffbe f403 09be 21cf f4be ff58 763e
00000120: a053 1fbf c760 a4be 7491 033e d134 893e
00000130: ce28 eb3e d9b3 fb3e 863c 81be f24c 143e
00000140: e56a 333e c9a5 b9bd 76b2 f6be 67d3 4f3b
00000150: 41df 113f 2f15 683e 8157 02be f625 c2be
00000160: 5549 10bf 3c1c 1bbe 4a6d b1bd f883 b8be
00000170: 6a52 93bd 2a63 b43e 37ed 4c3e 90b8 723d
00000180: 98ce ccbe 689f 0d3f 4fac efbd 696c 52bf
00000190: 71b2 37bc d61c 993e 6517 aabe 1fa4 7f3e
000001a0: d907 45be d682 d03e a2a8 203e 0283 df3d
000001b0: 36aa bdbd e7e9 6a3d 93df a8be efde 0fbf
000001c0: 8eff fe3e d0f4 a43c e6c7 af3d 5eb5 d23e
000001d0: 4a4a a3be e0ca f7be 2239 d9be efb5 79bf
000001e0: 7bb1 3fbc 0de8 71bb 1f32 b4bd 9f3a a9be
000001f0: caa5 e73d a5d4 2f3f 3da1 8abe 28de a1bd

actor_head.bias f4 [4]
0.09824961 0.11077181 -0.11299557 -0.12595344
00000000: 1737 c93d 55dc e23d 396a e7bd f0f9 00be

critic_head.weight f4 [1, 32]
0.0071477997 0.027052741 0.036904 0.00422881 -0.016212193 -0.0269575 0.169787 0.017003138
-0.028614078 -0.03131252 -0.102576464 -0.05914976 -1.8236418 -0.011854343 -0.13289744 0.21045081
-0.031022975 0.05295849 -0.00038627887 -0.015442677 -0.0036126527 0.014693702 -0.067964286 -0.24658589
0.011793369 0.00050254114 0.04002557 -0.01673987 -0.00011356175 0.0015784588 -0.0013544596 0.07650773
00000000: 1738 ea3b b69d dd3c a628 173d d491 8a3b
00000010: 6fcf 84bc fad5 dcbc a5dc 2d3e 2a4a 8b3c
00000020: 1268 eabc 8f41 00bd 9c13 d2bd 0547 72bd
00000030: 186d e9bf b838 42bc 4416 08be 6b80 573e
00000040: e523 febc 00eb 583d 7985 cab9 4803 7dbc
00000050: 41c2 6cbb dabd 703c dc30 8bbd 0381 7cbe
00000060: fa38 413c f7bc 033a daf1 233d 0d22 89bc
00000070: 0028 eeb8 4ae4 ce3a 1f88 b1ba 16b0 9c3d

exp_avg f4 [256, 15]
-0.00041344005 -0.00078596774 0.00011627211 -2.5916877e-05 -0.0028661648 -0.001213463 -0.0005102652 -0.00037679105
-3.1344337e-06 -2.3295868e-06 -0.00037711815 -0.00053173373 4.6996607e-05 3.4993376e-05 -0.0003796019 0.00011965091
0.00014302708 -2.1293154e-06 -3.5684196e-05 -0.0014203079 0.00078433385 4.58933e-05 3.6590067e-05 1.2063491e-07
-4.270197e-07 7.288608e-05 3.7298578e-05 -1.8124235e-06 6.4010765e-06 5.7226513e-05 1.24533735e-05 5.0431496e-05
-2.893656e-06 -2.7387629e-05 0.0019691507 0.00046510276 9.910857e-05 8.422055e-05 -2.7378492e-06 1.0092848e-06
3.7166647e-05 -9.0379544e-05 4.1075156e-05 -1.5123751e-05 0.00028351895 -0.000108644184 -0.0006470419 3.165991e-05
0.000100051395 0.002814909 0.00033361145 -0.000117503994 -0.00010133268 3.988573e-06 -1.6431945e-06 -8.8672905e-06
0.00015616427 -5.983856e-05 2.462516e-05 -4.7654365e-05 -0.00080244034 -0.00027784982 -2.8271916e-05 -7.326427e-05
-0.002330597 -0.003450564 -0.0006530658 -0.0004964092 -2.1225349e-06 -6.008486e-07 -0.00062993506 -0.0005816906
3.1829823e-05 9.06124e-06 -0.00023416126 0.0 0.0 0.0 0.0 0.0
0.0 0.0 0.0 0.0 0.0 0.0 0.0 0.0
0.0 0.0 -9.087567e-05 -0.00021939844 5.128191e-05 6.2146755e-06 -0.00219964 7.5716445e-05
-0.000118282514 -8.280133e-05 -3.3956198e-07 -2.580659e-06 3.0374971e-05 -0.00010052595 5.0718713e-06 3.8716673e-05
-0.00016052443 -0.0014042752 -0.0015198453 -0.00018509552 0.00024612114 -0.019162755 -0.014926409 -0.0024987157
-0.0019552663 1.2060529e-05 -7.69933e-06 -0.0020075943 -0.0010727539 -0.00018095976 0.00011551907 -0.003715678
-0.00010181992 -5.9526792e-05 -2.0708152e-05 2.3916642e-05 -0.00012169496 -0.0006897855 -0.00010182266 -7.990401e-05
6.296975e-07 -4.161067e-07 -7.484321e-05 -3.501204e-05 -9.448205e-06 6.241773e-06 -8.774408e-05 0.0
0.0 0.0 0.0 0.0 0.0 0.0 0.0 0.0
0.0 0.0 0.0 0.0 0.0 0.0 -0.00028923815 -0.0003244366
5.714334e-05 -3.8086047e-05 -0.0027515674 -0.00076071045 -0.00031538075 -0.00023255558 -2.0458258e-06 -1.4465405e-06
-0.00023472651 -0.00033491376 3.0674408e-05 2.1729518e-05 -0.00017239743 0.0 0.0 0.0
0.0 0.0 0.0 0.0 0.0 0.0 0.0 0.0
0.0 0.0 0.0 0.0 0.00012127393 0.00011494268 7.0222954e-06 -1.6881959e-05
0.00064065924 0.0010444672 0.00015536865 0.00012212932 -6.6721344e-07 2.4045616e-07 0.00014045832 7.041339e-05
1.0009948e-05 -3.6097522e-06 0.00027682446 0.00024907032 9.455e-05 1.8584422e-05 3.4801767e-05 0.00029561901
0.0010732473 0.00016559025 0.00012457282 8.751651e-07 1.0631214e-07 0.00015773805 0.00016536254 -1.3127007e-05
-1.6101081e-06 0.00010118692 -0.00021265974 9.89875e-05 -4.280394e-05 -8.851444e-06 -0.0026367495 -0.0017725459
-0.00022036083 -0.0001767887 1.2471356e-06 4.8588583e-07 -0.0002498991 -8.5469095e-05 -1.8703455e-05 -7.2865146e-06
-0.00027700636 -9.30975e-40 -8.69675e-40 2.0664e-41 -6.998e-42 1.20195e-40 -1.77735e-40 -7.27731e-40
-5.80786e-40 4.877e-42 -4.83e-43 -6.9607e-40 -2.29457e-40 -7.3146e-41 7.257e-42 1.2704e-41
7.801718e-05 -1.6289227e-05 5.0056464e-05 -9.97547e-06 0.0015954891 0.0014653851 0.0001757362 0.00013433925
6.4808326e-08 3.8538545e-07 0.00014785635 0.00012812945 -9.70399e-07 -5.789765e-06 0.00035971095 0.00020819504
00000000: fcc2 d8b9 6709 4eba 1dd7 f338 1268 d9b7
00000010: 44d6 3bbb 100d 9fba 51c3 05ba 0a8c c5b9
00000020: 2959 52b6 ff55 1cb6 f1b7 c5b9 0c64 0bba
00000030: 391e 4538 dac5 1238 4e05 c7b9 18ed fa38
00000040: 8af9 1539 5ce5 0eb6 9dab 15b8 a029 baba
00000050: c19b 4d3a 8e7d 4038 4978 1938 df87 0134
00000060: 2441 e5b4 6bda 9838 0b71 1c38 6642 f3b5
00000070: d4c8 d636 8006 7038 d5ee 5037 6886 5338
00000080: a230 42b6 7cbe e5b7 de0c 013b 09d9 f339
00000090: 82d8 cf38 909f b038 e4bb 37b6 c376 8735
000000a0: 62e3 1b38 268a bdb8 1d48 2c38 04bc 7db7
000000b0: 45a5 9439 e7d7 e3b8 3f9e 29ba 92ca 0438
000000c0: afd2 d138 567a 383b 92e8 ae39 7a6c f6b8
000000d0: 9182 d4b8 95d5 8536 bc8b dcb5 b9c4 14b7
000000e0: 07c0 2339 2afb 7ab8 2192 ce37 7ce0 47b8
000000f0: dc5a 52ba 5fac 91b9 7a29 edb7 75a5 99b8
00000100: eebc 18bb dc22 62bb 8132 2bba 7521 02ba
00000110: df70 0eb6 004a 21b5 3a22 25ba 987c 18ba
00000120: 0381 0538 bb05 1837 2f89 75b9 0000 0000
00000130: 0000 0000 0000 0000 0000 0000 0000 0000
00000140: 0000 0000 0000 0000 0000 0000 0000 0000
00000150: 0000 0000 0000 0000 0000 0000 0000 0000
00000160: 0000 0000 0000 0000 8194 beb8 520e 66b9
00000170: 8817 5738 a887 d036 d627 10bb f5c9 9e38
00000180: 710e f8b8 a0a5 adb8 0b4d b6b4 622f 2db6
00000190: c1cd fe37 75d1 d2b8 0b2f aa36 b663 2238
000001a0: 7352 28b9 a80f b8ba 8c35 c7ba 3316 42b9
000001b0: d209 8139 36fb 9cbc e68d 74bc 7ec1 23bb
000001c0: ed23 00bb 9457 4a37 5f2c 01b7 d891 03bb
000001d0: a69b 8cba 04c0 3db9 d442 f238 bb82 73bb
000001e0: 2788 d5b8 68ac 79b8 6bb6 adb7 99a0 c837
000001f0: 7c36 ffb8 b9d2 34ba a089 d5b8 2492 a7b8
00000200: 7c08 2935 4565 dfb4 24f5 9cb8 e4d9 12b8
00000210: bb83 1eb7 6c70 d136 3f03 b8b8 0000 0000
00000220: 0000 0000 0000 0000 0000 0000 0000 0000
00000230: 0000 0000 0000 0000 0000 0000 0000 0000
00000240: 0000 0000 0000 0000 0000 0000 0000 0000
00000250: 0000 0000 0000 0000 e3a4 97b9 2519 aab9
00000260: 32ad 6f38 95be 1fb8 a453 34bb 6a6a 47ba
00000270: b059 a5b9 2ada 73b9 054b 09b6 c126 c2b5
00000280: eb20 76b9 5d97 afb9 65a8 0038 c947 b637
00000290: 95c5 34b9 0000 0000 0000 0000 0000 0000
000002a0: 0000 0000 0000 0000 0000 0000 0000 0000
000002b0: 0000 0000 0000 0000 0000 0000 0000 0000
000002c0: 0000 0000 0000 0000 0000 0000 0000 0000
000002d0: 7254 fe38 620d f138 0fa1 eb36 bb9d 8db7
000002e0: eaf1 273a 81e6 883a 74ea 2239 d70f 0039
000002f0: 8f1a 33b5 0b18 8134 fe47 1339 e7aa 9338
00000300: 66f0 2737 123f 72b6 c022 9139 a795 8239
00000310: 2549 c638 bee5 9b37 1df8 1138 50fd 9a39
00000320: 34ac 8c3a 4ba2 2d39 c39f 0239 e3ec 6a35
00000330: b84d e433 7c66 2539 2b65 2d39 113c 5cb7
00000340: e51a d8b5 5034 d438 6afd 5eb9 8297 cf38
00000350: 6188 33b8 aa80 14b7 51cd 2cbb c554 e8ba
00000360: a910 67b9 5b60 39b9 4163 a735 d26d 0235
00000370: e404 83b9 df3d b3b8 5de5 9cb7 af7e f4b6
00000380: 2a3b 91b9 2e23 0a80 4d78 0980 9a39 0000
00000390: 8213 0080 0e4f 0100 74ef 0180 9eec 0780
000003a0: ff52 0680 980d 0000 5901 0080 5c94 0780
000003b0: a27f 0280 e7cb 0080 3b14 0000 6a23 0000
000003c0: 289d a338 d9a4 88b7 b8f3 5138 515c 27b7
000003d0: bb1f d13a 2a12 c03a d445 3839 6bdd 0c39
000003e0: c12c 8b33 f9e6 ce34 e309 1b39 7d5a 0639
000003f0: a83e 82b5 b445 c2b6 9697 bc39 ee4e 5a39
