src/checkpoints/likes_the_corner.ckpt (torch, 301025 bytes, 33 tensors)

shared_body.0.weight f4 [256, 15]
00000000: d28a f93d 1465 da3e aafb 2ebf 58ab 2ebc
00000010: 397b d1bd 599c 07bd f597 263c 2d09 b5bd
00000020: 1bc0 603d b169 093e 0c1c 7ebe 4742 773d
00000030: c7b4 fe3d 7dd6 423e e057 a83d e720 153d
00000040: 0f23 cd3c 6edd e1be bed9 4d3f 69e9 203d
00000050: e5a1 833e 0650 133e 2a40 33be 4c07 103e
00000060: b018 c7be 0050 843e 3b57 c9bd ae23 fa3d
00000070: 6010 903c 5937 5abe 5bda 21bd fb75 fc3d
00000080: efd3 2d3f 0ffc 53be 7f6d 953d 58b6 5c3e
00000090: fb06 a0be e1fa 62bc 2493 f73e 5947 bbbe
000000a0: 18d6 7fbe f042 aa3d dd79 10be 082b 063f
000000b0: f521 4e3e 49bf 3fbe 2851 debb 9cd5 16be
000000c0: 7262 453f 0d40 dd3d 9d8c 52be 26a5 86be
000000d0: c8d0 7dbd 0478 b1bd f6a6 ed3e 1096 c6bc
000000e0: 8a87 853d 72a8 febb f616 01bf 8922 68be
000000f0: 028a 433e 786a 203e 3973 863f 13d3 4e3f
00000100: cb47 4ebe 47fb 773b ad9a e83d 5b5f 55be
00000110: 8e77 af3d 9392 6f3e d5db 57bd 0359 e23c
00000120: 355d b03b 8460 85be 6729 7e3e 2b25 a5be
00000130: f92b d7be 4424 acbe d51c d3bf c5b6 bebd
00000140: 415d 053e 6e8e 853e 8a80 4bbd ba50 093d
00000150: 6cf5 523d 9dc1 273d 0a84 1d3e a161 c5bd
00000160: 1916 ffbe bb19 963d 7b13 37be 991d bebe
00000170: 25ec b8bf b778 a1bf 4fe6 883b f41c c7bd
00000180: 437c 823e 875f 933e d404 fcbe f438 f33d
00000190: 11fe a2bd 8af0 f53d 9779 033f 6921 133e
000001a0: dbfe 7c3d 4ed6 b0be 87e3 ce3e f26b b8bf
000001b0: f092 213f b454 f93b 8b5f febc 2f96 e2bd
000001c0: 0166 4cbd d958 fabe e7c6 223e 5794 2b3e
000001d0: 0009 a93d 7cf9 553f f3df 3bbe 08b2 d03d
000001e0: 14b1 4d3e 6100 b53d c2aa 9f3e c8f0 123d
000001f0: d8db f6bc 47d7 cd3d 8a52 e43d abe7 b43d
00000200: fec9 a7be a113 333c 3297 80be 364b ccbd
00000210: 313d 2c3e 4683 453e 4896 19bf b03b 9a3e
00000220: aeec 8cbc 1844 ac3e b7b9 5fbd 8320 c5bc
00000230: fa41 af3c 1d60 063e ce43 c0bb 0d2a 9f3e
00000240: e7f2 ed3d 7554 eebd e0fb b0bd d1f0 72be
00000250: 72df c9be 65f3 93bd 4c92 35be cfab acbd
00000260: f9da 573e 9d47 5f3e 5ac9 95bd 3b6a b1bd
00000270: 17de e4bd 6b59 90bd c25a 3cbd d92a 25be
00000280: 8c85 2b3e 446e 68bd dba9 17be 14e1 79be
00000290: 0e72 55bd fa4c 4cbe 4c2e 46bf 495f 483f
000002a0: c258 b4bf a1b2 9d3d 67de f53c e925 823d
000002b0: cda0 8ebe e041 afbd 8009 7fbe 26c5 e2bd
000002c0: c52c 1e3e 2893 213e 7638 4b3e 4fb0 c1be
000002d0: 5ebd 3b3e ec1c 1bbe 9e37 b2bd 6680 ddbd
000002e0: e64f 63be 8022 423c f03a 4fbc ec85 5cbd
000002f0: d26c 7d3e 6e55 5d3e c036 acbb 9b27 58be
00000300: d893 e23d 202f 733d 6e76 cbbd 92e3 cebe
00000310: 1e18 163e 35cb 77bf 917a 8ebf 0a53 fa3d
00000320: 93a8 b8bd 8810 da3d af3b 3ebe 3de0 be3e
00000330: f6c8 e3be 71b5 6cbe 1062 b7bd aa76 91bd
00000340: 5964 593e ff3a e3bd 2577 a0be 357d 853e
00000350: d09e 34bf 1f99 153e 0a16 193c 7654 703d
00000360: 09fa 323e 3e31 5a3e 570c 91bd f093 703e
00000370: 427b cebd f846 dfbc 4e63 8d3e 0051 abbd
00000380: 224f 0bbe a482 a93d c4ab 3abe f442 c0bf
00000390: cdd6 4cbe 7123 65be c5e8 72be 486f c23d
000003a0: 30cc ac3e 0d76 ce3d 4ec0 a13e dd05 443e
000003b0: e0ec b4bd aa51 d9bd 3865 8ebe 625b ba3e
000003c0: 320a c8be 3032 a1be f4d6 793e 703f db3e
000003d0: 5788 a13d ddf3 c83d a9a2 cabd 99a2 253b
000003e0: d2da 723e 9083 32be 95e2 8a3e 23f8 a13e
000003f0: 0588 22bf d7aa c63e 49f0 e9bc dad2 2d3d
0.12184681 0.4265524 -0.6835276 -0.010660969 -0.10228581 -0.03310809 0.010168065 -0.08839641
0.054870706 0.13419224 -0.24815387 0.06036594 0.12436824 0.19027133 0.08219886 0.03640833
0.025041131 -0.4411425 0.80410373 0.039285097 0.25709453 0.14385995 -0.17504945 0.14065284
-0.38886023 0.25842285 -0.09831091 0.122138366 0.017585933 -0.21310176 -0.03951488 0.123271905
0.6790151 -0.20701621 0.07296275 0.21553934 -0.31255326 -0.0138537595 0.48354447 -0.3657787
-0.24984014 0.083135486 -0.14108987 0.5240941 0.20130141 -0.18725313 -0.006784577 -0.14729923
0.7710334 0.10803232 -0.20561452 -0.26297873 -0.061966687 -0.08665469 0.46416444 -0.024241477
0.06519993 -0.007771545 -0.5042566 -0.22669424 0.19095615 0.15665615 1.0503913 0.80790824
-0.20144574 0.0037838982 0.11357627 -0.20837156 0.08567725 0.23395757 -0.052699883 0.027630335
0.005382205 -0.26050198 0.24820481 -0.3225492 -0.42025736 -0.33621418 -1.6493174 -0.09312204
0.13023855 0.26085228 -0.04968313 0.033524252 0.051503584 0.04095613 0.153824 -0.09637762
-0.49821547 0.073291264 -0.17878525 -0.37131956 -1.4447066 -1.2614964 0.0041778455 -0.09722319
0.2548543 0.2878382 -0.49222434 0.11876097 -0.079586156 0.1200877 0.51357406 0.14368214
0.061766487 -0.34538502 0.40407965 -1.4407942 0.63114834 0.0076089744 -0.031051418 -0.110638015
-0.049901966 -0.4889591 0.15896188 0.16755806 0.0825367 0.8358381 -0.18347149 0.10190207
0.20087081 0.08837963 0.31184965 0.03587416 -0.030134127 0.100508265 0.111485556 0.0883325
-0.32771295 0.010929973 -0.25115353 -0.09975283 0.16820218 0.19288358 -0.59994936 0.30123663
-0.017202701 0.336457 -0.05462047 -0.024063354 0.021393765 0.13122602 -0.005867458 0.3108677
0.116185956 -0.11637203 -0.08641791 -0.23724677 -0.39428288 -0.07224158 -0.17731589 -0.084312074
0.21079625 0.21804662 -0.073137954 -0.0866284 -0.11175173 -0.07048305 -0.04598499 -0.16129626
0.16750163 -0.056745782 -0.14810888 -0.24402267 -0.052110724 -0.19951239 -0.77414393 0.78270394
-1.4089587 0.077000864 0.030013276 0.06354887 -0.27857056 -0.085574865 -0.24905968 -0.11072759
0.15446766 0.15778792 0.19845757 -0.37829825 0.18333957 -0.15147752 -0.087020144 -0.10815506
-0.22198448 0.011849046 -0.012648329 -0.053838655 0.24748543 0.2161462 -0.00525555 -0.21108858
0.11063355 0.059371114 -0.09934698 -0.40407997 0.14657637 -0.96794444 -1.1131154 0.1222287
-0.09016528 0.10647684 -0.18577455 0.37280455 -0.4448926 -0.2311609 -0.08954251 -0.071027115
0.21229686 -0.11095237 -0.313409 0.26072088 -0.7055483 0.14609192 0.009343633 0.0586743
0.17478193 0.21307847 -0.07082432 0.23493934 -0.10082103 -0.02725552 0.27614826 -0.08365059
-0.13604406 0.08276871 -0.18229586 -1.5020432 -0.20003815 -0.22376801 -0.23721607 0.094938815
0.33749533 0.1008111 0.3159203 0.19142862 -0.08834243 -0.10611279 -0.278116 0.36397845
-0.39070278 -0.31483603 0.24398404 0.42821836 0.07887333 0.09812138 -0.09894306 0.0025273918
0.23716286 -0.17433 0.27125993 0.31634626 -0.634888 0.38802215 -0.02855696 0.04243741

shared_body.0.bias f4 [256]
00000000: e4d9 173e c287 88be b014 b3be 55be 973d
00000010: f37e 8e3e ef8b a23e b49f e53d 21aa 5d3d
00000020: 99c6 01be 8459 f8bd f2eb 6dbe 49a3 d43d
00000030: b407 5cbe ef65 f0bd 39ff 5c3e b7a0 513d
00000040: 1975 0cbe 1788 7bbe 41cb c4be e3ac 9c3d
00000050: b4ff cf3c 3e70 d4bc d1a1 1f3e f61b 103c
00000060: 707d 32be a4fe e93d 26cd 97be d5d6 8dbe
00000070: 883a 703d 2c16 05be edae 5e3e 3465 d63d
00000080: 49f2 29be 3a52 24be 7209 83be 0126 63be
00000090: 1935 99bc 6d6c 9b3e f587 69be 807e 933d
000000a0: a35b 10bd d112 153e 8fd1 0ebe 0813 373c
000000b0: a47c c43e 2d34 083c 71f9 c8bd 554f 123d
000000c0: 5562 09be 06bc 553d 786d 7abd 96ed 763e
000000d0: 366a b7be e436 fbbd e9d4 fc3d 08fa f7bd
000000e0: c2c2 50bc 7772 a4bd 069b db3d 5500 973e
000000f0: 8881 b6bd 83e0 a13d 7bd3 843e a205 4abe
00000100: 335a 86bc 04e1 c43d e1c6 723e 0720 053c
00000110: 4485 abbc 74f1 c13b 1355 d5bd 8bb1 a5be
00000120: 8d5c 17be 54db 2abd 2206 df3c f3ce 4a3e
00000130: 5e2f b03d d4d2 27be be18 78be 1725 353e
00000140: 3b31 37be 0add 57be 526f 75be 88a2 6c3d
00000150: 7592 1fbe 4137 55be e0b6 b73d 4ce3 5bbe
00000160: 526a 1dbe f3a4 48be 9cf4 b53d 0fc6 de3c
00000170: c0b2 983d 834f 97bd b12b 67be 109a 673e
00000180: 62e9 15be 8bf8 41bd ff39 bd3d 12ab 31bd
00000190: 9971 92bd 73d2 963c a6f0 d63c c634 bcbd
000001a0: dbac 24be 857e 79be 7d68 88be 66d8 373c
000001b0: 1b24 493d 4c93 663e 1a44 0b3e 8717 ae3d
000001c0: 5189 643e 4da8 7bbe ae8f adbd dc33 de3d
000001d0: f1eb 983e 9655 8e3e 61ab 823d 1822 773d
000001e0: 5d90 15be a444 833d 97e2 263d 7cf8 6c3d
000001f0: 2a6c 79be 8151 2b3c 6c3a 11be babb 1f3e
00000200: 585e 723e 0924 dfbe 908f 173d 3f46 333e
00000210: ac10 853d f033 80be 2944 c23c dfbf adbd
00000220: 8992 263e 64c9 a8bd f646 0b3e f8d1 27be
00000230: 0807 2e3e 43eb 7bbe ae9b f1bd 5491 9e3d
00000240: e216 00be 7cdd 7bbe 7100 bfba 8312 2cbd
00000250: aec9 2a3e e6d1 b43e 89b1 80bd 7009 313e
00000260: 1da2 493e 08b8 cd3d 5916 b5be da7e 743d
00000270: b8f4 73be cea8 8f3e 6323 e0bd f7ac 7dbe
00000280: 1b4c 10be 829d 2c3e dde8 47be b953 333e
00000290: 9849 32be 1582 153e d4d1 e4bc c28d ae3b
000002a0: b1a5 2abe 7663 7cba 3fee 573e a564 633e
000002b0: 1b61 94be 9b3e 733e 90d6 0abe cecf 893e
000002c0: 878b 023e 8645 bcbd 057b 87bd 9c39 233e
000002d0: 66cf 993d 5740 043e 3a02 233d b27f 673d
000002e0: 6719 e53d 7eb5 f63d 30ec f2bd 3c26 2ebd
000002f0: 4c3b 7bbe c879 773d 03e1 acbe a0c5 6d3e
00000300: 0c03 15be 5c1e 63bb ed5c 8bbd e75c fcbd
00000310: ea99 31be 15e9 303e 9537 d9bd 7188 383e
00000320: da8d 2fbd b4fc 273e 5021 ffbb be99 aabe
00000330: 6bcc 2abc 2b11 66be 7062 1ebe 1926 1c3e
00000340: fa88 f7bc 2a01 9cbd 5e65 28be 1ebf 68bd
00000350: 41a0 5b3d 6bf8 72bb 6c2a 723d 3573 84be
00000360: 00f3 90be 4bf9 e4bd df91 4e3d ca26 d3ba
00000370: 8121 6dbe 1277 d5bc 8609 be3e 1e31 343e
00000380: 23f6 f6bd 18b0 25be c41c 94be a74f d8bd
00000390: 0381 b4bd 9dce ff3c b015 2e3d d6aa 85be
000003a0: 0b06 b03d 111b f5bc 1bd9 2e3e 16fa 3b3d
000003b0: 7039 043e 6cad a93e 4009 b3bd ec2c 433d
000003c0: cde2 193d e544 833e 1549 b13d 6fda 4b3e
000003d0: 4311 3cbd 56bb 3dbe fa3e f5bb 2489 543e
000003e0: cf3b 98be e0c1 8cbe 5e33 8ebe b4b7 4ebe
000003f0: ceab 873e 351c 903e 3745 b53d 4f84 cb3d
0.14829212 -0.26666075 -0.3497672 0.0740935 0.2783123 0.31747386 0.112121016 0.054117326
-0.12673415 -0.12126449 -0.23234537 0.10382707 -0.21487314 -0.11738192 0.21581735 0.05117866
-0.13716544 -0.24563633 -0.3843632 0.07650163 0.025390483 -0.025932427 0.15589072 0.008795729
-0.17430663 0.11425522 -0.29648703 -0.27702966 0.05864957 -0.12996739 0.21746416 0.10468522
-0.1659633 -0.16046992 -0.25593144 -0.22182466 -0.018702077 0.3035616 -0.2280577 0.07201862
-0.03524364 0.14557959 -0.13947128 0.011173971 0.38376343 0.008313221 -0.09813202 0.03572019
-0.13416417 0.052181266 -0.061139554 0.2411407 -0.3582322 -0.12266329 0.12345297 -0.121082366
-0.012741746 -0.08029645 0.10722928 0.2949244 -0.08911425 0.0790415 0.25942597 -0.19728711
-0.016400432 0.09613231 0.23708679 0.008125312 -0.02093757 0.005918676 -0.10416617 -0.32362017
-0.14781399 -0.041713074 0.027224604 0.19805507 0.086027846 -0.16389018 -0.24228188 0.1768993
-0.17889874 -0.21080413 -0.23968247 0.05777219 -0.15583213 -0.20821859 0.089704275 -0.21473426
-0.15372589 -0.19594173 0.08884546 0.027194051 0.07455969 -0.073882125 -0.2257526 0.22617364
-0.1463981 -0.04735617 0.092395775 -0.043376036 -0.07150573 0.018410897 0.026237797 -0.09189753
-0.16081564 -0.2436467 -0.26642218 0.011221027 0.0491067 0.22517127 0.13600197 0.08500581
0.22318007 -0.2457592 -0.0847467 0.10849735 0.2986751 0.27799672 0.06380344 0.06033525
-0.14605851 0.064095765 0.040743437 0.05785416 -0.24357668 0.010456444 -0.14182442 0.15598956
0.23668802 -0.4358218 0.037002146 0.17507266 0.064973205 -0.25039625 0.023714142 -0.08483862
0.16266836 -0.08241537 0.13601288 -0.1638869 0.1699487 -0.24601464 -0.11797272 0.07742563
-0.12508729 -0.24596208 -0.0014572275 -0.04200984 0.16678497 0.3531639 -0.06283862 0.17288756
0.19690748 0.10044867 -0.35368612 0.059691288 -0.23823822 0.28058475 -0.109442495 -0.24773012
-0.14091532 0.1685696 -0.19522424 0.17512406 -0.17410886 0.14600404 -0.027932085 0.0053269574
-0.16664769 -0.0009627858 0.21086977 0.22206362 -0.28980336 0.23754351 -0.13558412 0.26916355
0.12748538 -0.09192948 -0.06615261 0.15939945 0.07510261 0.12915169 0.039797045 0.056518264
0.11186486 0.12046336 -0.118614554 -0.042516932 -0.24534339 0.060418874 -0.3376542 0.23219919
-0.14551944 -0.0034655547 -0.068048336 -0.12322407 -0.1734387 0.17276414 -0.106063046 0.18020798
-0.04285989 0.16404992 -0.0077859536 -0.3332042 -0.010424714 -0.22467487 -0.15467238 0.15248908
-0.030216683 -0.076174095 -0.16444919 -0.05682289 0.053619627 -0.0037074338 0.059122488 -0.25869146
-0.28310394 -0.11180361 0.050432082 -0.0016109583 -0.23157312 -0.026057754 0.3711664 0.17596862
-0.120586656 -0.16180456 -0.28928196 -0.105620675 -0.088136695 0.03122645 0.04250115 -0.261069
0.085949026 -0.029920133 0.17075007 0.045892797 0.12912536 0.33140123 -0.08741999 0.047650263
0.03756981 0.256385 0.086565174 0.19907545 -0.0459149 -0.18528494 -0.007484314 0.2075544
-0.2973313 -0.27491665 -0.27773565 -0.20187265 0.26498264 0.2814652 0.08851092 0.09937345

shared_body.2.weight f4 [64, 256]
00000000: 7025 77be 3570 e53d e890 86bd 142a ccbd
00000010: 44ad e23d 5254 92be eb34 4abe ff26 2cbd
00000020: a8fa 7a3e 9c19 25be 81aa 053d d4cc 303e
00000030: 00bd 1abb 7dcd e2bd 3c84 f43c cae8 b4be
00000040: 1fb6 50be be33 973e 8bcc 50bd c097 d53d
00000050: 1410 8dbe 696d 16bd 8349 91bd 1367 093e
00000060: 62b8 2abc b365 ef3d 56f2 efbc 4d94 52be
00000070: 52cf 973d a48b 3dbe e12b 2bbd 35a0 d3bd
00000080: 18e4 7abd 6315 01be 945f 04bd 3a63 55bd
00000090: be97 cfbd 6a5d 0dbd 70e7 67bd 0792 0b3e
000000a0: 258d 823d b7ee d03d 6926 8c3e b282 92bd
000000b0: eff6 af3d 49e8 f5bd d3d4 3dbe 8211 8bbd
000000c0: d526 ebbc e80c 12bc cdf5 4a3d 0e4d 0b3e
000000d0: 944d edbc 206f efbd e67d d13d 2f2e cbbd
000000e0: 982a 8e3e 9e28 823d f1d9 e93d 8273 abbd
000000f0: 49b5 febd b339 1a3e b6f5 963b 6dd6 85bf
00000100: 4b00 453d 17c3 ae3d fd3e 543e 1035 fcbe
00000110: 0531 cf3e 13e9 17be f150 0abd 77d2 b6be
00000120: 723a 92bb aeec 26be f4f3 eb3d 4bb7 1d3d
00000130: 3396 253d 0deb 91bc 8138 debb 4921 8c3d
00000140: f1fe 99be 94db 913c 2611 073d 3f8b 113e
00000150: c7e3 54be 12a0 06bd 290d 503d 973f bfbd
00000160: 7ed9 cb3b 1c89 43be 0490 62be afc7 89bd
00000170: ede5 293f 0e85 d9bb 3161 1e3d a441 3bbd
00000180: 5f1f f2bd b449 cbbc d1b2 a2bd 7215 15be
00000190: a639 73bd cfdb 1fbe 62bd 10bc 9993 33bc
000001a0: 942f 183e 36d8 a5bd 8b7a b8bd 45f8 c93d
000001b0: 32b0 98be 0404 b83c e206 9bbb 7e2f 3c3d
000001c0: 61fe f2bb 0fdc 89bd be4c 88be 1ac9 bd3d
000001d0: 6c4a fabc d5ca 8cbc 5c30 1a3e 88a4 333e
000001e0: d64b d53d 2542 79be 7c8c 11be 61a4 263d
000001f0: af0b 29be e61b dcbe 17cf 71bc 7ae9 b0bd
00000200: 767a 95bd c24c 033e e2de 33be 7292 29be
00000210: c08d 80bb 283e 86be 859d 44bd cce5 9abe
00000220: 7e71 29be 1ae6 2e3a f96c 583e adfa cbbd
00000230: 0980 693e 3682 27be 38fd ed3c 7661 5dbe
00000240: 128d 393e 9e8b b33d 1e50 1abe 8081 bebc
00000250: 1be0 563d 8c7a e73d 6f88 94be 4722 133d
00000260: dd8c 603c a932 213d 2948 4cbe be76 2d3e
00000270: 27e4 ebbc 697e a63c 45f6 bb3c ba48 77bd
00000280: e631 4fbc 09f0 f93b e795 d0be 308d 00be
00000290: cdef 25be 7a3b 58bd 6101 8e3d e8eb 583e
000002a0: 72fb 98be 155c f0be 6248 1c3e d714 4c3d
000002b0: f90a 0abe 4968 0bbd e4d7 ebbd 79b9 40be
000002c0: 9368 07bf 9904 dabc 7ab4 96bb ce61 fd3d
000002d0: 2aad 2bbe ea4d 813e 754c 9dbe 2f3b 1b3e
000002e0: 7658 053e 2677 d53d 3880 bd3c 3af5 c83e
000002f0: 7946 133d 7be1 d63c b157 1ebe 0a36 13bd
00000300: 1e91 3ebe ad8a 733e b80f 89bd 922a 883d
00000310: 734a 1dbe d637 aebe 614b 3fbe 2a6a 4dbd
00000320: 82ed 3ebd c9ac bbbc 9a39 96bb 72c1 d53d
00000330: 98e6 86bd 0a88 133e 14ec 513b 9a0f b13d
00000340: 399b 0dbe 618b 013e 12c3 073d 8788 2e3d
00000350: fa2e e5bd a896 cdbd 74eb 3abe 61a2 3dbd
00000360: 1463 9b3c 3c2b 823d b462 88bd 9f37 54bd
00000370: ee5b 6bbe 3ec7 e7bd e24c 0b3e 41bd b4be
00000380: 341e 8cbd 4e79 13be 405e e9bd 6540 973d
00000390: eb3c 0c3b c5d9 57bd 3a3d 17bd f13a 17bd
000003a0: 19ca 41be d555 7dbd 92c0 e5bd 4966 573e
000003b0: d824 48bd 3f64 9bbe d83e 433c f411 fe3d
000003c0: 90d9 08be cb1a b73d 53e6 d93e 394e 0b3e
000003d0: 3100 603e 635d 84bd e7a7 78be bdfa 62bb
000003e0: 51ac 733c 9d4f f4bc 3d73 34bd e11a 91bd
000003f0: b61a da3d 0529 94be 291e d83d 0054 79ba
-0.24135375 0.112030424 -0.065706074 -0.09968963 0.11068204 -0.28579956 -0.19746749 -0.042029377
0.2450968 -0.1612305 0.03263331 0.17265636 -0.0023611188 -0.1107435 0.02984821 -0.35333854
-0.20381974 0.29531664 -0.050976317 0.10429335 -0.2755133 -0.036725435 -0.070940994 0.13418226
-0.010419937 0.116893195 -0.02929036 -0.20564385 0.0741259 -0.185103 -0.041789893 -0.103332914
-0.061252683 -0.12605815 -0.032317713 -0.052096583 -0.101363644 -0.034512915 -0.0566172 0.13629924
0.063745774 0.10201781 0.27373055 -0.071538344 0.08592021 -0.120071955 -0.18538217 -0.06790449
-0.02870504 -0.00891421 0.04955082 0.13603613 -0.028967656 -0.11691117 0.10229091 -0.09920918
0.2776687 0.06355403 0.11418522 -0.08371641 -0.12436921 0.15061073 0.0046069277 -1.0456063
0.048095983 0.08533304 0.20727153 -0.49259233 0.40467086 -0.14835005 -0.033768598 -0.35707447
-0.0044625336 -0.16301224 0.1152114 0.03850488 0.040426444 -0.017812276 -0.006781638 0.06842286
-0.30077317 0.017804898 0.03297534 0.14213274 -0.20790015 -0.0328675 0.0507938 -0.09338301
0.0062209954 -0.19095272 -0.2212525 -0.0672754 0.66366464 -0.006638176 0.038666908 -0.045716897
-0.1182239 -0.024815418 -0.07944263 -0.14558962 -0.05938115 -0.15611194 -0.008834215 -0.010960483
0.148619 -0.080978796 -0.09007748 0.09861807 -0.29821926 0.022462852 -0.004731045 0.04594373
-0.0074155782 -0.06731426 -0.2662105 0.09266873 -0.030553065 -0.017186562 0.1505751 0.17543232
0.10414855 -0.24341638 -0.14213747 0.040684108 -0.16508363 -0.42990035 -0.014758847 -0.08638282
-0.07298748 0.1282225 -0.17565492 -0.1655977 -0.003923148 -0.26219296 -0.048001785 -0.30253446
-0.165472 0.0006671861 0.2113532 -0.09959922 0.22802748 -0.16358265 0.029051408 -0.2161921
0.1812022 0.08766864 -0.15069625 -0.02325511 0.052459817 0.11302671 -0.2901034 0.03592136
0.013705459 0.039354954 -0.19949402 0.16939828 -0.028795315 0.020323949 0.022944579 -0.06037209
-0.012646174 0.0076274914 -0.40739366 -0.12553859 -0.16204758 -0.052791096 0.06933857 0.21183741
-0.29879338 -0.46945253 0.15261987 0.049824562 -0.13480748 -0.034035 -0.11515787 -0.18820752
-0.5289394 -0.02661352 -0.004599151 0.123721704 -0.16765276 0.25254756 -0.30722395 0.15159295
0.13022026 0.104231164 0.023132429 0.39249593 0.03595588 0.026230564 -0.15463139 -0.035940208
-0.18610045 0.2378337 -0.06692451 0.06648745 -0.15360431 -0.34026974 -0.18681099 -0.050150074
-0.046613224 -0.022909539 -0.0045845034 0.104372874 -0.06586951 0.14407364 0.0032031583 0.08645554
-0.13828744 0.12650825 0.033145018 0.04261067 -0.11190601 -0.10038501 -0.1825388 -0.046297435
0.018968143 0.063559026 -0.06659451 -0.051810857 -0.22984287 -0.11317299 0.13603547 -0.3530064
-0.06841698 -0.14401743 -0.1139493 0.07385329 0.0021398615 -0.052697916 -0.036923625 -0.036921445
-0.1892475 -0.061849434 -0.112183705 0.21035112 -0.048863262 -0.3034992 0.011916839 0.12405768
-0.13364244 0.08940657 0.42558536 0.13604058 0.21875073 -0.064631246 -0.242828 -0.0034634315
0.014872626 -0.029823119 -0.044055212 -0.07085205 0.10649626 -0.28937545 0.105526276 -0.0009511113

shared_body.2.bias f4 [64]
00000000: bac6 07bd 47e6 bfbb 309e ad3d b74a 78bd
00000010: f8a7 0fbd a301 773d 4cc0 58bd 24a9 b9bc
00000020: a410 78bd c7f8 253b 2245 8fbd 6de7 f43d
00000030: 93a0 85bd f473 573c 8d9e 2a3d 7744 a0bb
00000040: 695e cfbc cf7e c33d 3179 5fbd e37d 99bd
00000050: 2c95 f73c 38cc 753c 1d52 93bd e1f2 f83a
00000060: 171d 1c3d f86e 5d3c e722 38bd 5835 0cbc
00000070: f2c5 5a3d 1982 90bc 2d32 8e3d bbee b73d
00000080: 0710 cf3c 6e58 8d3b 34e6 d3bb 2ddd 0ebd
00000090: 5707 7b3d 5788 7cbc 6a6f 84bd 1958 8938
000000a0: 9668 9ebc a99d 07bd 2e30 74bd 851b 53bd
000000b0: 57a2 e7bc e8db 863d c796 50bd 79df 50bd
000000c0: 0740 083d 1b20 ae3d fc28 7b3d fd28 6fbd
000000d0: acc7 5bbd 014d bf3c 2e3a 1bbc f260 96bc
000000e0: 8b7f 02bd 570a bc3d a61b 89bd 2607 ccbc
000000f0: a053 8bbd c5ce df3d c76e 2d3c 0ffb dc3c
-0.033148505 -0.0058563086 0.084774375 -0.06061813 -0.035072297 0.060304295 -0.052917764 -0.02266366
-0.060562745 0.0025325285 -0.06995608 0.119582035 -0.06524768 0.013150204 0.041655112 -0.004890974
-0.025313573 0.09545671 -0.054558937 -0.07494714 0.030222498 0.015002303 -0.07193396 0.0018993282
0.03811368 0.013515227 -0.04495516 -0.00855764 0.05341143 -0.01764016 0.06943164 0.08981081
0.025276197 0.00431352 -0.0064666513 -0.0348789 0.061286297 -0.015413365 -0.06466563 6.5490785e-05
-0.01933698 -0.03310934 -0.05961626 -0.051539917 -0.028275652 0.065849125 -0.050925042 -0.05099437
0.033264186 0.085022174 0.061318383 -0.0583887 -0.05365722 0.023352148 -0.00947432 -0.018356774
-0.031859916 0.0918166 -0.06694727 -0.024905752 -0.068030596 0.1092811 0.010585493 0.026975183

shared_body.4.weight f4 [32, 64]
00000000: 8c24 92bd 8a5c f73b ca89 35bd 3b5d acbe
00000010: 7427 02bd 1f5e b0b9 448f c63d df94 b0be
00000020: b37f fa3d 1398 0a3e b65d aebd ac9b fbbd
00000030: 2f6d 01be d671 9b3c 9e91 863d c282 eebd
00000040: f50c d3bc 0263 80bd 26f2 f03d 76f9 8a3c
00000050: 9fcd 93be f43c 683e 3107 a5be 9bc8 ef3d
00000060: e22e 023e 04d6 f5bd 687a 2f3d 4416 c1bd
00000070: 1361 ecbd 4866 44bd 8a72 cf3d 67d8 a13d
00000080: 8f3f c53d 4e4e f83d 9d7c 613c 7654 ddbd
00000090: f5db 663e 1d97 c23b f036 013c 768a 163e
000000a0: e011 ed3b 36cc a9bd 724d c0bd fbae 97bd
000000b0: ff15 d3bc 2369 263e a64a c7bd 40c9 e03b
000000c0: 650f e03b 167e a4bd 4e79 a0be be53 ea3d
000000d0: 97a0 cdbe 7ee3 b83d 4972 9a3d 3f90 8c3d
000000e0: e8bc b5bd d56f adbd d651 813d 76a7 e6bd
000000f0: c19c 4ebe 7c30 c9bd 847c 463e b197 32bd
00000100: fbcb 4dbe 8021 6c3d 6f80 d6bd 0466 703e
00000110: 4d58 f03d 7261 3cbd 2db5 f23d 9244 1c3e
00000120: 81ae 64be d1b9 87bd e4d0 cd3b d800 793d
00000130: 4316 2b3e 1c76 6fbc b267 45bd 990a f2bd
00000140: b78e b33c 5419 823c dc60 d8bd 9797 8d3e
00000150: b826 a63d 8ed0 d13d 264f c23e e44b c4bd
00000160: 8491 153e e99f 2e3e e4b6 d8bd 017a 853e
00000170: e7a2 8a3e 2491 ee3d 48f6 153e 2b5f bf3d
00000180: d74b 6d3e ce40 e43c cac6 adbd 11f0 883e
00000190: 8bee 83be 7a5f 083e a994 55bd 5f3b 1abe
000001a0: 8a90 a8bd 1714 e43c 7993 5dba 359a 6c3e
000001b0: 3b5e 853d 2a23 15be e43b 233c 6fcd bd3d
000001c0: 91c0 2f3e 892d 013e 01cd 24be 487f d03d
000001d0: 5a02 8f3e 5f81 84bd 4536 3f3d 01a2 143e
000001e0: 7b13 83bd a140 d0b9 8d12 acbd 6a36 d03c
000001f0: 55d8 583e e856 8a3e 82c7 e73d db9d 6dbd
00000200: a631 babd 8a9d 9ebd 5e7f b2bd 9044 d6bc
00000210: a012 ec3b 1090 a1bd 5838 a3bd 40f6 8d3b
00000220: 6a6e dbbd 48e6 d0bc da05 8bbd 88cf bc3c
00000230: d440 713d 0216 ffbd 7acd cebd 8a90 ae3d
00000240: cc00 b2bd 8078 1cbd e01c cf3d 8004 0d3b
00000250: 865e 86bd de90 a63d 9ae0 cb3d f06f 403d
00000260: 28ea fa3d a0b5 c43c 4063 41bb 40b2 6f3c
00000270: 2486 4fbd 9859 8e3d 9c1b a5bd c8af c9bc
00000280: 543f b9bd 56dc f33d 20ce a63b c218 fbbd
00000290: fc15 f0bd ec5a 0f3d be36 87bd 30a9 76bd
000002a0: d085 b4bd ca53 d2bd e0d4 313d 5c34 e6bd
000002b0: f6b9 83bd 581c e7bd da80 d33d 1459 50bd
000002c0: 008e abbb 8a20 d4bd a6ec 92bd 7ebe 9a3d
000002d0: 2c00 593d a81f f83d 7640 be3d dc5c 9ebd
000002e0: 145d 273d 08a3 57bd e279 b53d d4f2 7e3d
000002f0: 1ae7 9d3d 72d6 d0bd 38ef df3c 18cc c7bd
00000300: 131e 913e 2f27 43bd 41d2 d33d 30c1 46bf
00000310: 9b4a 50be 8f85 55bc a449 21be a83b 07be
00000320: 4090 1f3e 2a59 513e 1827 21bd e69c 8e3d
00000330: 881f c4be b643 bcb8 e25f d83c 65f2 373d
00000340: 495a 383e b98c f93d 74fa c93d 8bbc 0cbd
00000350: 06a0 103e 29e7 d13d 54dd aa3e 6728 49bc
00000360: 8a0c 0e3d e82b eabd 3946 64bd d92d 093e
00000370: 4a32 69be 5054 8a3d b56f 1d3e 647d 95be
00000380: 71ca f1bd 8a59 a83e 00ed e3bd e0c5 15bf
00000390: 2f34 8fbe 2471 b93c cf6a 58bd 35ac 49be
000003a0: 6020 723d 2128 c83c b67b 573c 668e 58be
000003b0: 4a0d a13d d113 363e 68a9 8fbd cc1e 0abd
000003c0: e067 82be 7701 093d 87f5 7dbd 1ddc f43d
000003d0: 08f0 a4be c61a 29be 37a3 473d 5014 e8bb
000003e0: 540f 18bd ee2a ce3d b441 c03d 8ee3 e33d
000003f0: 712f c4bd 99de 533e 80bc 483e 9e49 0cbd
-0.07135877 0.0075488733 -0.04432086 -0.3366488 -0.031775907 -0.00033639462 0.096952945 -0.3448858
0.12231388 0.13534574 -0.08513968 -0.122855514 -0.12639306 0.01897518 0.06570743 -0.11646034
-0.025763014 -0.06268884 0.11764936 0.016964655 -0.28867814 0.22679502 -0.3223205 0.11708184
0.12713197 -0.12003711 0.042841345 -0.09428075 -0.11541953 -0.047949106 0.101292685 0.079026036
0.096312635 0.121243104 0.01376262 -0.10807125 0.22544844 0.0059384243 0.007886633 0.14701256
0.007234797 -0.08290903 -0.093897715 -0.07406422 -0.025767324 0.16251044 -0.09731035 0.0068599284
0.0068377727 -0.080318615 -0.31342548 0.11441754 -0.40161583 0.09027766 0.075413294 0.0686345
-0.08873922 -0.08468596 0.06314437 -0.112624094 -0.20176984 -0.09823701 0.19383436 -0.043601695
-0.20097344 0.057649136 -0.104737155 0.23476416 0.11735592 -0.04599137 0.11850963 0.15260532
-0.22332193 -0.066272385 0.006281005 0.06079182 0.16707711 -0.014615562 -0.048194595 -0.118184276
0.021918638 0.015881218 -0.105653495 0.27654716 0.08112854 0.10244857 0.3795101 -0.095847875
0.14606291 0.17053188 -0.105817586 0.26069644 0.2707741 0.11648777 0.1464473 0.09344324
0.23173462 0.027862933 -0.08485182 0.26745656 -0.2576793 0.13317671 -0.052143726 -0.15061711
-0.08230694 0.02784161 -0.0008452456 0.231057 0.06512114 -0.14564195 0.0099630095 0.09267699
0.17163302 0.12615027 -0.16093828 0.10180527 0.27931482 -0.06469988 0.046682615 0.14514925
-0.064002 -0.00039721004 -0.08401976 0.025416572 0.21176274 0.2701943 0.1131735 -0.05801187
-0.09091501 -0.07744892 -0.087156996 -0.02615574 0.0072043687 -0.07888806 -0.07969731 0.004332334
-0.10714419 -0.025500432 -0.067882255 0.023048177 0.058899716 -0.124553695 -0.10097785 0.085236624
-0.08691558 -0.038200855 0.10112929 0.0021517575 -0.06560998 0.081331 0.09954949 0.046981752
0.12251693 0.024012387 -0.002950862 0.0146299 -0.050665036 0.069506824 -0.08061907 -0.024619952
-0.09045282 0.1190726 0.00509049 -0.122605816 -0.11722943 0.03499882 -0.06602238 -0.060219944
-0.08814585 -0.10269888 0.043415904 -0.112404555 -0.064319536 -0.11284703 0.10327311 -0.0508662
-0.0052354336 -0.10357769 -0.07174043 0.07555865 0.05297868 0.12115413 0.09289639 -0.07732555
0.04086025 -0.052645713 0.08861138 0.062243298 0.07710095 -0.10197152 0.027335748 -0.09755725
0.28343257 -0.04764479 0.10342837 -0.7763853 -0.2034096 -0.013032331 -0.15750748 -0.13206351
0.15582371 0.2044417 -0.039343923 0.0696352 -0.38305306 -8.977151e-05 0.026412908 0.0449089
0.18003191 0.12185044 0.09862223 -0.034359496 0.14123544 0.102491684 0.33371985 -0.012277699
0.034679927 -0.11434156 -0.055731032 0.13396396 -0.2277309 0.067543626 0.15374644 -0.29197228
-0.11806191 0.32880813 -0.111291885 -0.5850506 -0.279695 0.022636957 -0.052836236 -0.19694598
0.059112906 0.024433197 0.013152054 -0.2114807 0.07863863 0.17780997 -0.070147336 -0.033720776
-0.25469875 0.033448663 -0.06200173 0.11956046 -0.3221438 -0.1651412 0.04873964 -0.0070824996
-0.037123993 0.10066782 0.09387532 0.11127387 -0.09579361 0.20690383 0.19603157 -0.034249894

shared_body.4.bias f4 [32]
00000000: dde4 64bd ceee cf3d 94f5 a0bd f191 5f3d
00000010: c667 1fbd 2a89 f6bc 4997 b63d 96c8 b53d
00000020: 9eae 96bc 5bc6 b93d 7506 c73c 999a cc3d
00000030: 26e9 b1bd a661 bfbd 1120 cd3c adf6 d33d
00000040: fd51 e33d 3e06 703d cb83 fe3d 389d 9fbc
00000050: a3ef 7b3d e4e9 94bd e3b6 39bd 913a 0dbe
00000060: 313f bb3c 3130 c5bc 8952 1bbd c22f cd3d
00000070: 8f31 cebd effa 21be d601 a8bd 13d2 283b
-0.055882324 0.1015297 -0.0785934 0.05458254 -0.038917325 -0.030094702 0.08915574 0.08876149
-0.01839381 0.090710364 0.024295071 0.09990425 -0.08687048 -0.09344797 0.025039705 0.10349784
0.110996224 0.058599703 0.12427481 -0.019484147 0.061507832 -0.072711736 -0.04534043 -0.13791873
0.02285728 -0.024070831 -0.03792051 0.10018875 -0.10068046 -0.1581838 -0.08203475 0.002575998

shared_body.6.weight f4 [32, 32]
00000000: a79d a1bd ae07 a83d 486c 0fbe 2cd9 8b3e
00000010: fa12 5a3d 0fdf 413c 128f 833e 953f 423e
00000020: bd78 353f 4e0f 0a3f 5f2e bf3e 0bf3 933d
00000030: 1c76 0d3f 7792 ac3e 7d57 333c ac7c 4ebe
00000040: fe1e d03e 823d af3e 3ed8 063e dec2 91bc
00000050: 944b d2be db28 dfbd 1228 d23e 6caf dcbc
00000060: 0f36 403e 86ae 68be 7081 11bf a8b5 9e3e
00000070: d743 ff3e d00e cabd 844b 0c3d 5b7a 1abe
00000080: b6a5 4f3d 2f6f 943d 9889 133d 7045 5a3e
00000090: 0206 42bd 7876 253e 9a9a 1bbe 0421 11be
000000a0: c3fa 16bd ef47 0abd 7ec0 bdbe c9dd be3d
000000b0: 9f8f 05be 4839 a53e f46c f7bd 77d0 7f3e
000000c0: ae47 05be 399f 183e ee3b 18bd b69a c0bc
000000d0: 6ebe b53d 4318 19be c546 8cbb 550b 5c3d
000000e0: a968 b93c afbf 603e 83cb fb3d 96f5 d7bc
000000f0: b5c6 ebbe c823 31bd 8ab1 963d 496f f83e
00000100: 79b2 77be 0929 883e 8507 8ebd adf1 95be
00000110: d76d ad3d 5f8b 213e ccdf 733e c0ef e0be
00000120: 4a44 2e3e 2c33 3a3e 3952 bf3e 8ea1 433d
00000130: a508 ab3e 2fe4 26be 68da 8bbe ddee 02be
00000140: d9ad 0e3e 67ad 213e e95a 4c3e 1889 6f3d
00000150: 84a6 723d 1011 b9bd 8ab5 973e f207 393e
00000160: 5757 29be 01f3 c8be de42 e4bd 3f26 713e
00000170: 3a18 d7be a4b8 283e cc46 12bd 53bf 9cbd
00000180: 4e7e 023e 99b5 7dbd a4a3 2f3d 32af 6dbe
00000190: 99d1 093e 5e75 9f3d 5151 a0bd 4213 9a3e
000001a0: c19b 81be 2bc1 943e 78b4 5dbe 7347 5abd
000001b0: 3939 263e 9a87 a4be 86c9 3a3e 4555 26be
000001c0: b813 ee3d 577b 23bd 4981 cabe c574 38be
000001d0: 476a 4b3e 8576 cd3d 9786 5e3e 5c16 7c3d
000001e0: b709 12be d8bf 39bc 676d 33be 6d89 8d3e
000001f0: 7d0d a8be ddb2 173d 8af3 9a3d 0b8b c43e
00000200: d74d 9fbd eb45 703b 6894 f63c 5547 66be
00000210: 1492 f0bd 33c7 b43d e4e7 2b3e f8a1 8fbe
00000220: 92c6 dbbe 537d 5dbe 1001 e53c 2711 ad3d
00000230: 807e 833e a356 c4be fd4d 80bd 6fff 09be
00000240: e261 fdba f0f2 213e 190e 703e 04d9 24bd
00000250: 52d3 463e d394 d33d 4304 09bd 8ada ef3e
00000260: 1788 febd 9cbd 7c3e 7968 683e 7ceb 213e
00000270: 6127 abbe a69f 0f3e 19de 293e c5e8 db3e
00000280: afa0 033e ebd5 b9bd 10a6 13be 6542 bbbd
00000290: d899 12be 904f 043c fe39 05be 793c 86bd
000002a0: c736 eebd 30cd 053e 321a a03d cc1b fabd
000002b0: da06 dabd 146c a23d 2ce4 a9bd f205 8b3d
000002c0: 3899 f8bd 28a9 0fbc 98f1 803c d23c 3a3d
000002d0: 2e4d 8f3d d015 fabc 2410 8c3d 1855 bcbc
000002e0: 8df4 043e 809c 0f3b b01e 1f3d 4caf 143e
000002f0: 2e22 ac3d 4310 ec3d 9ecd 983d ec14 37bd
00000300: a117 733d f7e5 8dbd 6ae8 f53d 047e ecbd
00000310: 1f75 81bd 401e 27bd 2569 f53d 5f3d 103e
00000320: a507 1b3f 0f0d 97bc 369a b53d 392e 503e
00000330: a5f5 c63d 4c19 f0be 2210 e13d cb1a b1bb
00000340: 5043 483e c4ba 613e ea0c 11be eba9 323d
00000350: 840b a8bd 1c7a b13d 0707 3dbe 257a 25bd
00000360: 462b f1bd f832 97bc 8398 48be 11a7 07be
00000370: 15e3 0c3e 36d7 08be efb1 2fbe 09e0 753e
00000380: 13a4 c9be a083 003e 23e8 2f3e db48 afbe
00000390: 8cb2 833c 8d5f f43d 90bb bb3e 2260 1fbf
000003a0: fb6d 093e bbb8 d03e 2df1 793e 49ff 043e
000003b0: 5525 373f ad2d d7be 78ed cabe 06c0 c4be
000003c0: c18c 133e ce5c f33d 5f70 17be 769f 243c
000003d0: 3ed4 243e 3c48 963c b9ba 1c3e 7c6c c13e
000003e0: b891 cebe 4d31 c6be 7203 30be 679f da3e
000003f0: b5a3 b2be 1112 413d 4261 2dbe 9dcd 523c
-0.07891398 0.0820459 -0.1400615 0.27314126 0.053240754 0.0118329665 0.2569509 0.18969567
0.70887357 0.53929603 0.37340066 0.07224091 0.55258346 0.33705494 0.010946152 -0.20164746
0.40648645 0.34226614 0.13168427 -0.017793115 -0.41073287 -0.108964644 0.41046196 -0.026939116
0.18770622 -0.22722825 -0.5683813 0.30997968 0.49856445 -0.098661065 0.034251705 -0.15085737
0.050695144 0.07247769 0.03601989 0.21315551 -0.04736901 0.16158473 -0.15195695 -0.1417275
-0.03686024 -0.033760007 -0.37060922 0.09319646 -0.13043068 0.32270265 -0.12081328 0.24981867
-0.13015625 0.14904489 -0.03716653 -0.023511272 0.08874212 -0.14950661 -0.0042808973 0.053721745
0.022632914 0.21948121 0.12294676 -0.026362222 -0.4605004 -0.043247014 0.07358082 0.48522404
-0.24189176 0.26593807 -0.06935028 -0.29285946 0.08468216 0.15775822 0.2381584 -0.43932915
0.17018238 0.18183583 0.37367418 0.047761492 0.33405033 -0.16297983 -0.27315068 -0.12786432
0.13933505 0.15788804 0.19956554 0.058480352 0.059240833 -0.090364575 0.2963069 0.18069437
-0.16537224 -0.39247897 -0.111455664 0.23549746 -0.4201067 0.16476685 -0.03571205 -0.0765368
0.12743494 -0.061940763 0.04288067 -0.23211363 0.13458861 0.07786058 -0.0782801 0.30092818
-0.25314143 0.29053625 -0.21650875 -0.053290796 0.16232766 -0.32134706 0.18240938 -0.16243465
0.11624855 -0.039912548 -0.39551762 -0.18013294 0.1986476 0.100323714 0.2173103 0.06154476
-0.14261518 -0.011337243 -0.17522202 0.2764391 -0.3282279 0.03703581 0.07565983 0.3838733
-0.07778519 0.0036662768 0.030100062 -0.22488149 -0.11746612 0.08827057 0.16787678 -0.2805326
-0.42924935 -0.21629839 0.027954608 0.08450537 0.2568245 -0.3834735 -0.06264875 -0.13476346
-0.001933154 0.1581533 0.23442878 -0.040246025 0.1941655 0.1033112 -0.03345133 0.4684642
-0.12428301 0.24681705 0.22696103 0.15812486 -0.3342848 0.14025745 0.1658863 0.42951027
0.12854265 -0.09074005 -0.14418817 -0.09143523 -0.14316499 0.00807561 -0.13010404 -0.06554503
-0.11631542 0.13066554 0.07817496 -0.12212333 -0.10645838 0.079307705 -0.082954735 0.06788243
-0.12138599 -0.008768357 0.0157402 0.04546816 0.06997143 -0.03052798 0.06839016 -0.022989795
0.12983914 0.002191335 0.038847625 0.14519995 0.08404957 0.11526539 0.07461093 -0.044697687
0.059348706 -0.06928628 0.1200722 -0.11547473 -0.06321167 -0.040800333 0.11982945 0.14085911
0.6055854 -0.018438844 0.08867304 0.20330133 0.09714822 -0.468943 0.10989405 -0.0054048053
0.19556928 0.22043902 -0.14165083 0.043619078 -0.082053214 0.08665869 -0.18459712 -0.04039969
-0.11775832 -0.018456921 -0.19589429 -0.13247325 0.137585 -0.13363346 -0.1715772 0.24011244
-0.3938299 0.12550211 0.17178397 -0.34235272 0.016076349 0.11932287 0.36666536 -0.6225606
0.1342086 0.40765938 0.24408408 0.12988009 0.7154134 -0.42027035 -0.396343 -0.38427752
0.14409162 0.118829355 -0.1478896 0.010047784 0.16096589 0.01834499 0.15305604 0.3777808
-0.4034555 -0.3870949 -0.17188814 0.4269974 -0.34890524 0.04713637 -0.16931632 0.012866405

shared_body.6.bias f4 [32]
00000000: 7126 f0bd ead3 523e ff33 a83d 1cbe 7ebc
00000010: 4c5f 113e 0f01 50be 3e6c abbd e715 d73d
00000020: 18c3 e1bc 71f2 013e a141 f4bc 3d94 93bd
00000030: c757 ae3b 5c09 793e 609a 44be 50c3 7b3d
00000040: 45ec 61bd 1512 af3d 07bf 97be 4bb9 f9bc
00000050: cbcd a6bd b157 153c 956e 633e 3ef8 2e3e
00000060: 2196 babd fb3e 27bc 8d63 aebe 5745 983d
00000070: 8a80 c53c a729 9f3e 98d5 9b3e cab5 5abe
-0.11726082 0.20588651 0.082130425 -0.015548255 0.14196509 -0.20312904 -0.08370255 0.105022244
-0.027558848 0.1269014 -0.02981645 -0.072060086 0.0053205225 0.24319977 -0.19199514 0.06146556
-0.055156965 0.08548371 -0.2963793 -0.030483862 -0.08144721 0.009115146 0.22210152 0.17086884
-0.09110666 -0.010207887 -0.34060326 0.074351005 0.024109144 0.31086466 0.30436397 -0.2135841

actor_head.weight f4 [4, 32]
00000000: 6def d13e f9a9 0fbf 75f3 253e 7315 ddbe
00000010: 3821 85be 4252 e7bc bd33 9fbe ba64 203e
00000020: ddf6 0f3f 2ce9 76be cd4e b73e e55d 033f
00000030: b2a2 c53e 52ec cabe 764e af3c b2c0 fa3c
00000040: ade2 a73e 3282 c03e 43ce 9b3d 8fe9 39bf
00000050: 5517 ca3e df67 a63e fac7 a4bc 7aa6 a9bc
00000060: ece3 8b3e 5fe5 033e f375 a93e 4d69 3d3f
00000070: d418 183e d27a 17bf 782d 00bf a578 e13e
00000080: 6e31 56bd 269f afbd 6c13 723e 2455 023f
00000090: 3794 c53e aed1 223e dc11 843e 8e8d 8e3e
000000a0: 17b8 25bf a27f 253f a635 bfbe 4966 9bbf
000000b0: 99b5 44be e9ce 123f 7ab8 8dbe 8124 bb3e
000000c0: dae7 a1be 8260 663e b4e4 933d 4c37 32be
000000d0: c463 dfbe 8dbc 023d e5ba 06bf ed74 ecbe
000000e0: 20da 86be f461 043f 0819 2fbe 5e24 a8be
000000f0: abc8 01bf f9cd e33e 8913 47be bc52 de3a
00000100: 8129 64be 2411 ca3e 1fe3 0bbf a501 e73e
00000110: 6af6 a8be b80a 34bd 91c3 fd3b cf7e 8cbf
00000120: 0d2e c13e 0e46 46bf 80c6 86be 86e2 b33e
00000130: ce40 c8be 6874 ccbd 7b4d 93bc 7a2f 0c3e
00000140: a057 b4bd efd0 eebe caec 2cbf d811 2d3f
00000150: d830 de3d 685e d2be 4b07 8d3e 4286 9d3e
00000160: f4d9 103e 25e2 69bf 4c4d 33bf 78dc eabe
00000170: 83ba 863e a903 05be 8808 313f 2257 f9bf
00000180: e6a4 26bf 57c0 eb3e fd9a 583d 3a74 41be
00000190: 6307 513e 87ed b3bd efbc 713d 35e5 9a3c
000001a0: 12d4 b6be 14c2 813e 0823 943e f009 20bf
000001b0: 0d87 b1be 6694 d73c c0a2 c9bd 6997 3dbf
000001c0: f9d6 b7be 8612 1abf 22fc 493d 177f ad3e
000001d0: 55c5 e9be 4f62 1abe c199 333e ba5e 313e
000001e0: 4378 dbbe cd04 30bf b18f b83e 823e a6bf
000001f0: 3bef 83bc 99a2 003f 9efa f03e 9ff5 a3bf
0.4100298 -0.5611873 0.16206153 -0.43180427 -0.26001906 -0.028237466 -0.3109416 0.15663424
0.5623606 -0.24112386 0.35802308 0.51315147 0.3860069 -0.39633423 0.021399718 0.030609462
0.32790127 0.3759933 0.07607701 -0.7262201 0.39470926 0.32501122 -0.020114888 -0.020709265
0.27322328 0.12880467 0.330978 0.739888 0.14853221 -0.59171784 -0.5006938 0.44037357
-0.052293234 -0.08575277 0.23640221 0.50911164 0.3858964 0.15900299 0.25794876 0.27842373
-0.64734024 0.6464788 -0.37345618 -1.214059 -0.19209899 0.5734697 -0.27679807 0.36551288
-0.316222 0.22497752 0.07221356 -0.17403907 -0.43630803 0.031918097 -0.5262893 -0.46182957
-0.2633829 0.51711965 -0.17099392 -0.32840246 -0.5069682 0.44493082 -0.19441046 0.0016961913
-0.22281457 0.39466202 -0.54643434 0.45118442 -0.330005 -0.043955535 0.0077442606 -1.0976199
0.37730446 -0.77450645 -0.26323318 0.3513376 -0.39111942 -0.0998314 -0.017981282 0.13689986
-0.08805776 -0.4664378 -0.6754881 0.6760535 0.1084916 -0.4108765 0.27544627 0.30766493
0.14145643 -0.91360694 -0.7003982 -0.4587133 0.26314172 -0.12989677 0.6915364 -1.9479716
-0.65095365 0.4604518 0.052882183 -0.18891993 0.20412974 -0.08785539 0.05901807 0.018908123
-0.35708672 0.25343382 0.28932977 -0.62515163 -0.34673348 0.02631588 -0.09845495 -0.7405916
-0.359062 -0.60184515 0.04931272 0.33886024 -0.45658365 -0.15076564 0.17539121 0.17321292
-0.4286519 -0.68757325 0.36047128 -1.2987826 -0.016105285 0.50248104 0.47066206 -1.2809333

actor_head.bias f4 [4]
00000000: b6cd 1f3e 5460 793d a4b7 3cbc c151 9f3d
0.15605816 0.06088288 -0.011518393 0.07779265

critic_head.weight f4 [1, 32]
00000000: 7d8e 9d3d 5de3 513d b138 78bd 2f83 5cbd
00000010: d8e6 943c 8a96 13be 18ee 573d effe 10bb
00000020: 6e0c 89bc 7d4d e3bd 1d52 2e3e 85fe c2bb
00000030: d374 2fbe f35d d23c 44e2 d8bf 76c4 92be
00000040: 4f6d 0e3e 7443 7dbd 7af5 8b3f 943e e83d
00000050: 286d 103e 3ee6 6e3d bc90 2bbe 36cd 54bd
00000060: 284c 7abd ede2 1ebd 0d91 cebe bf0d 863e
00000070: ca15 9a3d e319 1cbd 314a bdbd 99c8 6c3b
0.07693193 0.05124222 -0.06060094 -0.053836044 0.018176481 -0.14412895 0.0527173 -0.0022124609
-0.01672956 -0.11098764 0.17023511 -0.0059507512 -0.17134409 0.025679564 -1.6944051 -0.28665513
0.13908885 -0.061831906 1.0934289 0.11340061 0.1410414 0.058325045 -0.1675443 -0.051953517
-0.061107785 -0.038790632 -0.4034504 0.26182362 0.07523687 -0.038110625 -0.092426665 0.0036130308

exp_avg f4 [256, 15]
00000000: baa9 aaba f3c8 b8ba 4ac4 d737 007f 8ab8
00000010: 5697 7bba 0ad5 e839 ccf4 71ba a008 3bba
00000020: 66d3 a4b5 1fc6 c335 27f4 83ba 7553 40ba
00000030: 3aa0 9a37 a516 b7b7 a2cb c4b8 61ca a73a
00000040: 4603 c539 99cc c3b7 1b46 0b38 85bf 103c
00000050: 933f 3d3a 4f8e 5b3a f762 253a a2ba 1736
00000060: 684b 6036 2fbb 273a 9e27 383a 4422 0eb8
00000070: 1688 52b8 08f4 a139 170a b1b8 15f6 7cb6
00000080: c46d 15b7 7411 9437 1737 f5b8 0303 16ba
00000090: 1e3f a8b8 4e9d 85b8 e2b9 5c34 968b b034
000000a0: ef3e d2b8 9e81 49b8 8dc3 4eb6 8b72 a5b6
000000b0: 552f b6b8 3ec9 c8b9 6547 06b9 837a 5f37
000000c0: a996 cbb7 61c6 b1ba f839 73b9 3486 44b9
000000d0: 3e2c 15b9 5ba0 0134 05c4 a3b5 80b5 eeb8
000000e0: b502 f8b8 4d4f f4b5 de9b 9937 d0c7 05b9
000000f0: f138 413a df29 443a b3d1 11b8 42ef 4937
00000100: f69e 7239 53a9 093a 635b 123a 3ab5 e339
00000110: 396a c8b5 561f 7c35 e3e7 023a d99f a639
00000120: cbf1 bb37 3f96 6cb7 d274 bc39 46ec bbba
00000130: e25e 1dba 790f 71b7 d858 3d38 7818 b7ba
00000140: 0873 fdba 9dbe 6cba 8ac2 33ba 7fbd 49b6
00000150: 0a5b d2b4 156e 66ba 8a53 57ba b31e 3d38
00000160: a15f c736 67f2 0cba 4212 533b f3ac 6c3a
00000170: b25a 82b8 e7a0 cb37 d57d b53c 153e 723b
00000180: 6226 133b 0434 e23a 0d6b f236 2f09 a3b6
00000190: 24de 243b 78e6 013b 995b e3b8 7279 9838
000001a0: 8702 053b c9b3 523a c43e da3a f468 96b8
000001b0: f950 20b9 d25b 10bb 5523 6839 6d94 2e3a
000001c0: d26d ff39 114c 1537 1c52 41b6 d01a 593a
000001d0: 66db 853a 05fe 0bb9 e5d8 3438 a5c4 543a
000001e0: 06a9 4ab7 db88 17b8 8890 e835 9e23 e8b5
000001f0: ac30 1638 5370 a638 7754 90b6 1921 55b6
00000200: e090 5233 b1fb f6b3 72aa 5136 80e6 c434
00000210: be9c 45b5 e487 e735 1912 a234 84af 053a
00000220: c7bc 133a 4cb1 a7b6 68aa 6cb7 1f92 173a
00000230: c592 5636 7f6f e539 82dd ad39 eecd d434
00000240: 6989 0136 24f8 ab39 4d62 ae39 52f2 c6b6
00000250: 9d12 f3b7 a042 9f38 0400 0080 0400 0080
00000260: 0400 0000 0400 0080 0400 0080 0400 0000
00000270: 0400 0080 0400 0080 0400 0080 0400 0080
00000280: 0400 0080 0400 0080 0400 0000 0400 0000
00000290: 0400 0080 bab6 4bbb 8406 14ba 4fdf 5f37
000002a0: 2ff9 4ab8 3b67 bcbc afeb 1bbb 6f01 14bb
000002b0: d0fa e4ba 8e6f 8e35 51a2 27b6 3ae0 0abb
000002c0: 1d05 c6ba 02b8 85b7 039d 1d38 21e0 4bba
000002d0: 0000 0000 0000 0000 0000 0000 0000 0000
000002e0: 0000 0000 0000 0000 0000 0000 0000 0000
000002f0: 0000 0000 0000 0000 0000 0000 0000 0000
00000300: 0000 0000 0000 0000 0000 0000 6f35 1bb8
00000310: 1cb5 0ab9 ad69 38b7 14c9 97b6 8de0 24bb
00000320: 3ceb e138 3f4a abb9 b8fe 92b9 e11f 6336
00000330: b525 a836 9a7d 24ba 7ad9 57b8 0ac4 54b8
00000340: 3da8 9db8 0da3 6339 c04f 5837 31ab b9b9
00000350: 1cae 3b37 0a90 0f37 184b 403a c7e2 463a
00000360: 1f28 2db9 dd82 0ab9 5422 3135 2566 5335
00000370: 6483 5bb9 7a1e b7b8 40f2 25b7 2f29 46b7
00000380: a9b6 3b39 bf0c 85ba b023 92ba bdff dc37
00000390: d38c 90b7 a21b 2dba 2f0c ac39 b7c4 47ba
000003a0: d677 19ba 201d 7235 a9a8 22b6 64c1 21ba
000003b0: cfc5 01ba 984c 63b7 b99a 1838 57a5 9fb9
000003c0: c46a 3fba fe19 b1b9 0a8a 6ab6 48c4 2637
000003d0: caed a0bb 008e 88ba a6ad 31ba 0904 0bba
000003e0: 34f0 db34 7f30 b035 b428 46ba 36f8 eeb9
000003f0: 96d7 cdb6 0ee9 a4b7 196a 90b9 f7d1 0539
-0.0013020553 -0.0014097973 2.5721401e-05 -6.6040084e-05 -0.0009597441 0.00044409215 -0.0009229898 -0.0007134769
-1.2280477e-06 1.4586293e-06 -0.001006727 -0.0007336655 1.8432842e-05 -2.1825845e-05 -9.383938e-05 0.0012801402
0.00037577207 -2.3341085e-05 3.3205473e-05 0.008834724 0.0007219251 0.00083753926 0.00063089974 2.2609388e-06
3.3422493e-06 0.0006398437 0.00070249464 -3.388735e-05 -5.019464e-05 0.0003089013 -8.441897e-05 -3.7694165e-06
-8.906649e-06 1.7651102e-05 -0.00011692772 -0.00057224947 -8.022621e-05 -6.3712345e-05 2.055672e-07 3.2884117e-07
-0.000100253026 -4.804285e-05 -3.0810218e-06 -4.9307178e-06 -8.6872526e-05 -0.0003829691 -0.00012805832 1.332036e-05
-2.4269642e-05 -0.001356315 -0.00023195881 -0.00018742011 -0.00014226229 1.2072398e-07 -1.2201496e-06 -0.000113825314
-0.00011826066 -1.8202496e-06 1.8311603e-05 -0.00012758304 0.00073708507 0.0007483046 -3.476599e-05 1.203624e-05
0.00023138136 0.00052513665 0.00055830757 0.00043431838 -1.4932076e-06 9.3922915e-07 0.000499366 0.00031781083
2.240473e-05 -1.4101678e-05 0.00035945192 -0.0014337383 -0.00060032133 -1.4368322e-05 4.5143854e-05 -0.0013969084
-0.001933665 -0.0009031089 -0.00068572967 -3.0061635e-06 -3.9181788e-07 -0.0008790207 -0.00082140474 4.5089702e-05
5.941795e-06 -0.0005376697 0.0032206927 0.0009028457 -6.2157764e-05 2.4274412e-05 0.022154728 0.0036963273
0.0022453298 0.0017257934 7.2246244e-06 -4.8588477e-06 0.002515682 0.0019821208 -0.00010841265 7.270546e-05
0.0020295696 0.00080376543 0.0016650786 -7.1721064e-05 -0.00015288954 -0.0022027385 0.00022138406 0.00066596904
0.00048719213 8.898803e-06 -2.8807035e-06 0.00082818884 0.001021248 -0.00013350703 4.3117343e-05 0.00081164605
-1.2079492e-05 -3.6128662e-05 1.7327411e-06 -1.7295713e-06 3.5808116e-05 7.936419e-05 -4.3013674e-06 -3.1758739e-06
4.9026198e-08 -1.150105e-07 3.124264e-06 3.6675556e-07 -7.361631e-07 1.725039e-06 3.018802e-07 0.0005099701
0.0005635735 -4.997628e-06 -1.4106372e-05 0.00057819666 3.1973916e-06 0.00043761355 0.00033162168 3.963791e-07
1.9302481e-06 0.0003280054 0.00033261106 -5.9290696e-06 -2.8976525e-05 7.594121e-05 -6e-45 -6e-45
6e-45 -6e-45 -6e-45 6e-45 -6e-45 -6e-45 -6e-45 -6e-45
-6e-45 -6e-45 6e-45 6e-45 -6e-45 -0.0031084255 -0.0005646723 1.3343829e-05
-4.8392623e-05 -0.022998443 -0.0023791601 -0.0022583862 -0.0017469767 1.0612291e-06 -2.497942e-06 -0.0021190778
-0.0015107725 -1.594052e-05 3.7577945e-05 -0.0007777233 0.0 0.0 0.0 0.0
0.0 0.0 0.0 0.0 0.0 0.0 0.0 0.0
0.0 0.0 0.0 -3.7004644e-05 -0.00013228174 -1.0991859e-05 -4.5235593e-06 -0.0025158257
0.00010772652 -0.0003267098 -0.0002803707 3.3844192e-06 5.01118e-06 -0.00062748196 -5.1462535e-05 -5.0727314e-05
-7.51768e-05 0.00021709148 1.28931715e-05 -0.00035413497 1.1186607e-05 8.557001e-06 0.00073354086 0.0007586893
-0.00016513512 -0.00013209456 6.598759e-07 7.8752265e-07 -0.00020934414 -8.731797e-05 -9.89117e-06 -1.18113085e-05
0.00017901756 -0.0010150893 -0.0011149552 2.6345131e-05 -1.7231714e-05 -0.0006603544 0.00032815474 -0.00076205604
-0.0005854344 9.019441e-07 -2.4238054e-06 -0.000617048 -0.0004950435 -1.3548088e-05 3.638372e-05 -0.0003045003
-0.0007301981 -0.00033779436 -3.4949067e-06 9.940071e-06 -0.004911159 -0.0010418296 -0.000677789 -0.00053030305
4.09667e-07 1.3127136e-06 -0.0007559166 -0.0004557983 -6.1345736e-06 -1.9658848e-05 -0.0002754487 0.00012762086
